model-evaluation/src/main/application/models/transformer.onnx (onnx, 34215 bytes, 25 tensors)

encoder.weight f4 [100, 16]
0.12433418 0.75740933 -0.6502574 1.3505608 0.33490518 0.7286797 0.8605697 -1.1699262
0.19676943 1.1763728 1.6701871 0.29509062 0.24821857 -0.0032305915 0.6047413 0.387042
0.7797594 -0.32824612 -1.6266166 0.51800007 -1.0006849 -0.381362 0.51094854 0.39599404
0.95324326 1.1904343 -0.68531865 -0.568323 0.73133564 -0.08502274 -2.4749477 0.56118864
0.7534496 -1.1906317 1.0063523 0.6240427 1.2290268 -1.2826394 2.1556544 -0.4600675
-2.0530849 -1.2768053 1.0697318 1.0978314 1.2865859 -0.039810974 -0.2684101 -1.272141
0.95904905 0.12783907 -0.2913424 -1.9081448 1.0639344 0.92974114 -0.74974126 -0.46162072
0.56855273 0.47550303 1.2775353 2.3892608 -0.22957024 -1.4599309 -1.3455862 0.2856779
1.5808351 0.38208964 -0.45451343 1.0745872 -1.4888005 -0.123393245 -0.271337 1.2781365
0.19388302 -0.94572526 -0.7468621 -0.53807855 -1.1737416 -0.8141537 -0.47602957 -0.64962107
0.22195181 0.6578629 0.17560937 2.3149455 0.23235005 -1.7928143 0.8180845 -1.3027828
0.41994035 1.9633948 0.96301705 -0.5440679 0.57540196 0.20544533 1.748741 0.4832269
1.645858 1.3150347 1.3456924 -0.6128512 -0.88348633 -0.087232485 -0.8124076 0.7485012
0.93263084 0.4640029 -1.1033472 -0.29680544 -1.0598853 -1.9674363 -0.7834305 0.24764735
-1.2836232 0.17021427 -0.037424102 0.3535959 -0.7017975 0.86143744 -0.05263066 -0.27105263
-0.27424303 -0.72961104 -0.4056206 0.0012269147 0.6341637 -0.43603283 -0.6167639 0.6680557
1.4332196 0.15180002 0.49034518 -0.21578427 0.13561375 1.2147336 -0.8734372 1.077144
0.38075525 0.6535095 -0.8732976 0.9594651 0.902837 0.730647 0.9820416 0.09483428
0.27831423 0.7614091 -1.9151074 -0.5559539 0.98963225 1.3605942 -0.94128376 -0.6916095
1.1132362 1.2889721 -0.7819911 -0.0059219324 1.7300781 -0.06015764 0.47364637 0.100620605
-0.80094695 1.0333376 -1.9254248 0.20178913 -1.2735151 -1.2570655 0.17933121 -0.24785087
0.08155306 -0.5459834 -0.6895036 0.97188884 0.49355528 -1.0980328 0.50361836 -0.24903704
-1.0829263 0.3874637 0.069091246 0.44821572 0.6140517 -1.1455576 -0.35392624 -1.1867477
0.9239767 0.6898449 1.9621177 -2.4580739 -1.8664465 1.6082559 -0.02047294 0.25342518
0.43577644 2.178589 0.0011654407 2.1543396 1.7290746 0.362619 1.0957344 0.46634603
-0.21642396 -1.4294765 -0.47522643 2.221694 -0.18640618 -0.81579834 0.4985603 1.0127802
-1.0827848 0.46868858 0.38480774 1.4418274 -1.5155183 -2.0931072 -1.6301646 0.31136793
0.7942688 -0.24919204 -0.21035787 -0.1884544 0.7284163 -1.6002777 0.6047678 -0.92118585
0.49425632 -0.7227007 -0.23615032 0.4451117 0.5343816 1.0612808 -0.7077682 0.6690693
-0.22199878 0.49482754 -0.63275695 -0.9222656 -1.0311524 -0.4796656 0.15728547 1.4580015
0.34453115 1.0185518 -0.41885194 0.58063453 -0.4999948 -0.6472041 -0.7166932 0.58054596
0.18395008 1.7953292 -0.16962437 0.27414566 -0.81659335 -0.69289476 2.238308 0.032791954
00000000: eba2 fe3d 94e5 413f 4577 26bf 2ddf ac3f
00000010: b178 ab3e c18a 3a3f 4c4e 5c3f 24c0 95bf
00000020: ed7d 493e 6293 963f b1c8 d53f 1e16 973e
00000030: 022d 7e3e 55b8 53bb 53d0 1a3f 5e2a c63e
00000040: 509e 473f e00f a8be f934 d0bf a79b 043f
00000050: 7116 80bf e141 c3be 86cd 023f bbbf ca3e
00000060: c007 743f 2760 983f 0b71 2fbf 9e7d 11bf
00000070: d038 3b3f 6720 aebd 8b65 1ec0 0faa 0f3f
00000080: 13e2 403f 9f66 98bf 27d0 803f 43c1 1f3f
00000090: c050 9d3f 872d a4bf 3ef6 0940 f88d ebbe
000000a0: be65 03c0 5b6e a3bf f9ec 883f bd85 8c3f
000000b0: d9ae a43f d510 23bd 0c6d 89be 84d5 a2bf
000000c0: 3d84 753f 3fe8 023e d52a 95be 173e f4bf
000000d0: 012f 883f 8403 6e3f 0bef 3fbf 8d59 ecbe
000000e0: ac8c 113f 2275 f33e 4786 a33f a6e9 1840
000000f0: 7614 6bbe 04df babf 2b3c acbf 6044 923e
00000100: ce58 ca3f 41a1 c33e fcb5 e8be 138c 893f
00000110: 0491 bebf 99b5 fcbd afec 8abe fa99 a33f
00000120: 4589 463e 0d1b 72bf 5b32 3fbf 84bf 09bf
00000130: 2a3d 96bf 606c 50bf 26ba f3be 914d 26bf
00000140: 5647 633e b469 283f f1d2 333e 1128 1440
00000150: 2ced 6d3e f07a e5bf fc6d 513f 96c1 a6bf
00000160: 6c02 d73e 8550 fb3f 4988 763f 0948 0bbf
00000170: 8b4d 133f 4360 523e bfd6 df3f 8469 f73e
00000180: 7aab d23f 0f53 a83f a63f ac3f d1e3 1cbf
00000190: 292c 62bf f2a6 b2bd f2f9 4fbf c69d 3f3f
000001a0: e5c0 6e3f ca91 ed3e 7b3a 8dbf e2f6 97be
000001b0: 52aa 87bf f4d4 fbbf e78e 48bf 4497 7d3e
000001c0: c44d a4bf a64c 2e3e 044a 19bd 860a b53e
000001d0: 00a9 33bf 2a87 5c3f 3f93 57bd 69c7 8abe
000001e0: 9569 8cbe cac7 3abf 81ad cfbe 6dd0 a03a
000001f0: 8d58 223f b23f dfbe 3de4 1dbf b305 2b3f
00000200: bd73 b73f 7771 1b3e 860e fb3e 8df6 5cbe
00000210: 55de 0a3e 647c 9b3f 9599 5fbf dbdf 893f
00000220: 5af2 c23e 664c 273f 6e90 5fbf 819f 753f
00000230: 5320 673f af0b 3b3f 1467 7b3f 7a38 c23d
00000240: 347f 8e3e b5eb 423f 3d22 f5bf ff52 0ebf
00000250: 8a58 7d3f f327 ae3f f9f7 70bf 520d 31bf
00000260: 867e 8e3f 0afd a43f 9230 48bf c50c c2bb
00000270: 3373 dd3f dc67 76bd c781 f23e 2d12 ce3d
00000280: dc0a 4dbf 6844 843f 5274 f6bf cfa1 4e3e
00000290: 8b02 a3bf 86e7 a0bf 9aa2 373e 9ecc 7dbe
000002a0: 4a05 a73d 91c5 0bbf 4f83 30bf b5cd 783f
000002b0: 47b3 fc3e 578c 8cbf 22ed 003f 9103 7fbe
000002c0: 549d 8abf a461 c63e b67f 8d3d 887c e53e
000002d0: 7e32 1d3f a2a1 92bf d235 b5be 59e7 97bf
000002e0: bd89 6c3f ad99 303f ac26 fb3f 1551 1dc0
000002f0: b8e7 eebf 54db cd3f deb6 a7bc f2c0 813e
00000300: 171e df3e 016e 0b40 b3c1 983a b3e0 0940
00000310: 5152 dd3f 33a9 b93e 0641 8c3f e8c4 ee3e
00000320: 3e9e 5dbe 16f9 b6bf e150 f3be 3c30 0e40
00000330: 43e1 3ebe 29d8 50bf 4c43 ff3e c8a2 813f
00000340: b198 8abf f3f7 ef3e 8505 c53e cd8d b83f
00000350: 81fc c1bf 78f5 05c0 3ca9 d0bf 9e6b 9f3e
00000360: 3355 4b3f 332c 7fbe 0e68 57be 31fa 40be
00000370: 7e79 3a3f e6d5 ccbf 10d2 1a3f d6d2 6bbf
00000380: 2a0f fd3e ea02 39bf 64d1 71be aee5 e33e
00000390: 3ccd 083f 0dd8 873f 4c30 35bf 2048 2b3f
000003a0: a653 63be 095a fd3e 5cfc 21bf 9919 6cbf
000003b0: cdfc 83bf bb96 f5be 710f 213e cb9f ba3f
000003c0: 6366 b03e e85f 823f c373 d6be 77a4 143f
000003d0: 52ff ffbe 2baf 25bf 3579 37bf a99e 143f
000003e0: 695d 3c3e 59cd e53f 03b2 2dbe d25c 8c3e
000003f0: 430c 51bf 8d61 31bf 7040 0f40 db50 063d

transformer_encoder.layers.0.self_attn.in_proj_bias f4 [48]
0.0 0.0 0.0 0.0 0.0 0.0 0.0 0.0
0.0 0.0 0.0 0.0 0.0 0.0 0.0 0.0
0.0 0.0 0.0 0.0 0.0 0.0 0.0 0.0
0.0 0.0 0.0 0.0 0.0 0.0 0.0 0.0
0.0 0.0 0.0 0.0 0.0 0.0 0.0 0.0
0.0 0.0 0.0 0.0 0.0 0.0 0.0 0.0
00000000: 0000 0000 0000 0000 0000 0000 0000 0000
00000010: 0000 0000 0000 0000 0000 0000 0000 0000
00000020: 0000 0000 0000 0000 0000 0000 0000 0000
00000030: 0000 0000 0000 0000 0000 0000 0000 0000
00000040: 0000 0000 0000 0000 0000 0000 0000 0000
00000050: 0000 0000 0000 0000 0000 0000 0000 0000
00000060: 0000 0000 0000 0000 0000 0000 0000 0000
00000070: 0000 0000 0000 0000 0000 0000 0000 0000
00000080: 0000 0000 0000 0000 0000 0000 0000 0000
00000090: 0000 0000 0000 0000 0000 0000 0000 0000
000000a0: 0000 0000 0000 0000 0000 0000 0000 0000
000000b0: 0000 0000 0000 0000 0000 0000 0000 0000

transformer_encoder.layers.0.self_attn.out_proj.bias f4 [16]
0.0 0.0 0.0 0.0 0.0 0.0 0.0 0.0
0.0 0.0 0.0 0.0 0.0 0.0 0.0 0.0
00000000: 0000 0000 0000 0000 0000 0000 0000 0000
00000010: 0000 0000 0000 0000 0000 0000 0000 0000
00000020: 0000 0000 0000 0000 0000 0000 0000 0000
00000030: 0000 0000 0000 0000 0000 0000 0000 0000

transformer_encoder.layers.0.linear1.bias f4 [32]
0.22270238 -0.114988625 0.12900898 -0.22505286 0.13571614 -0.11993149 -0.20447776 -0.1996268
-0.20127454 -0.16039184 -0.120492816 0.11389598 -0.24747133 0.04693076 0.0650717 0.082157165
-0.15274936 -0.07318297 -0.15578681 -0.07109955 0.2368178 0.21803984 -0.09298828 0.09764087
0.15469775 -0.007989794 -0.18942672 -0.036173224 -0.16250673 -0.05031964 0.18212798 0.15733859
00000000: 180c 643e 287f ebbd ee1a 043e 4274 66be
00000010: 2cf9 0a3e a49e f5bd 9e62 51be f86a 4cbe
00000020: ea1a 4ebe c23d 24be f0c4 f6bd 4c42 e93d
00000030: 2069 7dbe 783a 403d 5044 853d 0442 a83d
00000040: 546a 1cbe f4e0 95bd 9486 1fbe a49c 91bd
00000050: 5e80 723e d645 5f3e a470 bebd f0f7 c73d
00000060: 1669 1e3e a0e7 02bc 14f9 41be 602a 14bd
00000070: 2a68 26be f81b 4ebd c27f 3a3e 5e1d 213e

transformer_encoder.layers.0.linear2.bias f4 [16]
0.101547584 -0.114215575 -0.16181485 0.16124056 -0.17166881 0.16401245 0.024850756 -0.10361442
-0.17239654 0.017114133 0.17409338 0.10531761 -0.096061155 -0.11439232 -0.041412547 0.15390702
00000000: 2ef8 cf3d dbe9 e9bd cbb2 25be 3f1c 253e
00000010: f3c9 2fbe e1f2 273e d093 cb3c cc33 d4bd
00000020: b888 30be f032 8c3c 8945 323e c2b0 d73d
00000030: b6bb c4bd 8546 eabd 34a0 29bd cd99 1d3e

transformer_encoder.layers.0.norm1.weight f4 [16]
1.0 1.0 1.0 1.0 1.0 1.0 1.0 1.0
1.0 1.0 1.0 1.0 1.0 1.0 1.0 1.0
00000000: 0000 803f 0000 803f 0000 803f 0000 803f
00000010: 0000 803f 0000 803f 0000 803f 0000 803f
00000020: 0000 803f 0000 803f 0000 803f 0000 803f
00000030: 0000 803f 0000 803f 0000 803f 0000 803f

transformer_encoder.layers.0.norm1.bias f4 [16]
0.0 0.0 0.0 0.0 0.0 0.0 0.0 0.0
0.0 0.0 0.0 0.0 0.0 0.0 0.0 0.0
00000000: 0000 0000 0000 0000 0000 0000 0000 0000
00000010: 0000 0000 0000 0000 0000 0000 0000 0000
00000020: 0000 0000 0000 0000 0000 0000 0000 0000
00000030: 0000 0000 0000 0000 0000 0000 0000 0000

transformer_encoder.layers.0.norm2.weight f4 [16]
1.0 1.0 1.0 1.0 1.0 1.0 1.0 1.0
1.0 1.0 1.0 1.0 1.0 1.0 1.0 1.0
00000000: 0000 803f 0000 803f 0000 803f 0000 803f
00000010: 0000 803f 0000 803f 0000 803f 0000 803f
00000020: 0000 803f 0000 803f 0000 803f 0000 803f
00000030: 0000 803f 0000 803f 0000 803f 0000 803f

transformer_encoder.layers.0.norm2.bias f4 [16]
0.0 0.0 0.0 0.0 0.0 0.0 0.0 0.0
0.0 0.0 0.0 0.0 0.0 0.0 0.0 0.0
00000000: 0000 0000 0000 0000 0000 0000 0000 0000
00000010: 0000 0000 0000 0000 0000 0000 0000 0000
00000020: 0000 0000 0000 0000 0000 0000 0000 0000
00000030: 0000 0000 0000 0000 0000 0000 0000 0000

transformer_encoder.layers.1.self_attn.in_proj_bias f4 [48]
0.0 0.0 0.0 0.0 0.0 0.0 0.0 0.0
0.0 0.0 0.0 0.0 0.0 0.0 0.0 0.0
0.0 0.0 0.0 0.0 0.0 0.0 0.0 0.0
0.0 0.0 0.0 0.0 0.0 0.0 0.0 0.0
0.0 0.0 0.0 0.0 0.0 0.0 0.0 0.0
0.0 0.0 0.0 0.0 0.0 0.0 0.0 0.0
00000000: 0000 0000 0000 0000 0000 0000 0000 0000
00000010: 0000 0000 0000 0000 0000 0000 0000 0000
00000020: 0000 0000 0000 0000 0000 0000 0000 0000
00000030: 0000 0000 0000 0000 0000 0000 0000 0000
00000040: 0000 0000 0000 0000 0000 0000 0000 0000
00000050: 0000 0000 0000 0000 0000 0000 0000 0000
00000060: 0000 0000 0000 0000 0000 0000 0000 0000
00000070: 0000 0000 0000 0000 0000 0000 0000 0000
00000080: 0000 0000 0000 0000 0000 0000 0000 0000
00000090: 0000 0000 0000 0000 0000 0000 0000 0000
000000a0: 0000 0000 0000 0000 0000 0000 0000 0000
000000b0: 0000 0000 0000 0000 0000 0000 0000 0000

transformer_encoder.layers.1.self_attn.out_proj.bias f4 [16]
0.0 0.0 0.0 0.0 0.0 0.0 0.0 0.0
0.0 0.0 0.0 0.0 0.0 0.0 0.0 0.0
00000000: 0000 0000 0000 0000 0000 0000 0000 0000
00000010: 0000 0000 0000 0000 0000 0000 0000 0000
00000020: 0000 0000 0000 0000 0000 0000 0000 0000
00000030: 0000 0000 0000 0000 0000 0000 0000 0000

transformer_encoder.layers.1.linear1.bias f4 [32]
0.22270238 -0.114988625 0.12900898 -0.22505286 0.13571614 -0.11993149 -0.20447776 -0.1996268
-0.20127454 -0.16039184 -0.120492816 0.11389598 -0.24747133 0.04693076 0.0650717 0.082157165
-0.15274936 -0.07318297 -0.15578681 -0.07109955 0.2368178 0.21803984 -0.09298828 0.09764087
0.15469775 -0.007989794 -0.18942672 -0.036173224 -0.16250673 -0.05031964 0.18212798 0.15733859
00000000: 180c 643e 287f ebbd ee1a 043e 4274 66be
00000010: 2cf9 0a3e a49e f5bd 9e62 51be f86a 4cbe
00000020: ea1a 4ebe c23d 24be f0c4 f6bd 4c42 e93d
00000030: 2069 7dbe 783a 403d 5044 853d 0442 a83d
00000040: 546a 1cbe f4e0 95bd 9486 1fbe a49c 91bd
00000050: 5e80 723e d645 5f3e a470 bebd f0f7 c73d
00000060: 1669 1e3e a0e7 02bc 14f9 41be 602a 14bd
00000070: 2a68 26be f81b 4ebd c27f 3a3e 5e1d 213e

transformer_encoder.layers.1.linear2.bias f4 [16]
0.101547584 -0.114215575 -0.16181485 0.16124056 -0.17166881 0.16401245 0.024850756 -0.10361442
-0.17239654 0.017114133 0.17409338 0.10531761 -0.096061155 -0.11439232 -0.041412547 0.15390702
00000000: 2ef8 cf3d dbe9 e9bd cbb2 25be 3f1c 253e
00000010: f3c9 2fbe e1f2 273e d093 cb3c cc33 d4bd
00000020: b888 30be f032 8c3c 8945 323e c2b0 d73d
00000030: b6bb c4bd 8546 eabd 34a0 29bd cd99 1d3e

transformer_encoder.layers.1.norm1.weight f4 [16]
1.0 1.0 1.0 1.0 1.0 1.0 1.0 1.0
1.0 1.0 1.0 1.0 1.0 1.0 1.0 1.0
00000000: 0000 803f 0000 803f 0000 803f 0000 803f
00000010: 0000 803f 0000 803f 0000 803f 0000 803f
00000020: 0000 803f 0000 803f 0000 803f 0000 803f
00000030: 0000 803f 0000 803f 0000 803f 0000 803f

transformer_encoder.layers.1.norm1.bias f4 [16]
0.0 0.0 0.0 0.0 0.0 0.0 0.0 0.0
0.0 0.0 0.0 0.0 0.0 0.0 0.0 0.0
00000000: 0000 0000 0000 0000 0000 0000 0000 0000
00000010: 0000 0000 0000 0000 0000 0000 0000 0000
00000020: 0000 0000 0000 0000 0000 0000 0000 0000
00000030: 0000 0000 0000 0000 0000 0000 0000 0000

transformer_encoder.layers.1.norm2.weight f4 [16]
1.0 1.0 1.0 1.0 1.0 1.0 1.0 1.0
1.0 1.0 1.0 1.0 1.0 1.0 1.0 1.0
00000000: 0000 803f 0000 803f 0000 803f 0000 803f
00000010: 0000 803f 0000 803f 0000 803f 0000 803f
00000020: 0000 803f 0000 803f 0000 803f 0000 803f
00000030: 0000 803f 0000 803f 0000 803f 0000 803f

transformer_encoder.layers.1.norm2.bias f4 [16]
0.0 0.0 0.0 0.0 0.0 0.0 0.0 0.0
0.0 0.0 0.0 0.0 0.0 0.0 0.0 0.0
00000000: 0000 0000 0000 0000 0000 0000 0000 0000
00000010: 0000 0000 0000 0000 0000 0000 0000 0000
00000020: 0000 0000 0000 0000 0000 0000 0000 0000
00000030: 0000 0000 0000 0000 0000 0000 0000 0000

235 f4 [16, 48]
0.09086469 0.15588096 -0.26692054 -0.018229634 -0.242102 -0.05441019 -0.09657319 -0.027359813
0.22228876 0.08783081 0.2623087 -0.012477905 0.19619104 -0.20109531 -0.06856136 -0.056819677
0.019339442 0.051687777 -0.19294032 -0.069622174 -0.2865232 0.26575533 0.23550138 -0.20464423
0.011014372 -0.2718651 -0.18662608 0.17519268 0.015184462 -0.10800031 0.2568371 -0.08931664
0.106461346 0.30196145 -0.095959395 -0.04109162 0.19228199 -0.17992572 0.005393654 0.11171135
0.2278389 -0.25335717 -0.20932633 -0.15955304 -0.031874597 0.15100804 -0.02289927 -0.21138422
-0.23643222 -0.17968738 0.20434329 -0.07295716 -0.15654506 -0.1945022 -0.2887183 0.26113328
0.037922353 0.09548637 -0.018106967 -0.18046431 0.23473522 -0.08972734 -0.04657957 0.21081409
0.10187909 -0.2379441 0.13075694 0.07885492 0.2383317 0.14454833 -0.06588064 0.104250014
-0.19307545 0.24706611 0.14326605 -0.051592737 0.1015439 -0.09711328 -0.13128944 0.22250906
-0.08079092 0.2389569 0.23344478 0.021761894 0.18272641 -0.047492117 0.2396603 -0.09810422
0.18471622 -0.16933864 0.29157212 -0.30391288 -0.0034206212 -0.23415278 0.026831537 0.18864954
0.14796615 -0.1375297 -0.120401785 0.23896304 -0.20236574 -0.03236589 -0.02198255 0.21737662
0.29760262 0.26453426 0.042419195 -0.12759303 0.19674143 0.2485787 0.21292213 0.12577271
-0.12387204 -0.29028285 0.25311723 0.03218326 -0.2783896 0.253337 -0.013898283 -0.1765328
0.005677402 0.27064458 -0.08458446 -0.018948615 0.27893355 -0.07257928 0.1201289 0.011556715
0.013960719 0.18622565 -0.25634563 0.2701349 -0.039753616 0.15095037 -0.10466938 0.017650455
0.30455074 -0.0044930577 -0.17286631 -0.27499682 -0.2574788 0.14628032 -0.03656894 0.26456967
0.17434594 0.033034295 0.14730221 0.14269662 -0.17756192 -0.09927975 0.09109777 -0.11667609
0.21130791 -0.16730292 -0.13685161 -0.09873286 0.3027028 0.25958255 0.2645376 0.016129315
-0.07713148 -0.076783195 0.27062544 0.13691169 -0.19314063 0.0685184 -0.3039557 -0.2633594
-0.099559486 -0.12021217 -0.23997918 0.021905541 0.17297837 -0.20656382 0.1755329 -0.017038941
-0.26759893 -0.12867445 0.24061391 0.20100549 0.12774858 -0.13459231 -0.23894861 -0.12568691
-0.1415547 -0.045366943 0.060310215 0.22807613 -0.02865389 -0.029731154 -0.28969747 -0.042811215
0.05336234 0.10017717 -0.05410421 -0.06321637 0.086997956 0.2476888 -0.08465801 -0.2193831
-0.1795083 -0.2123356 -0.099057496 0.01343146 -0.11586039 0.10537061 0.004924625 0.13986626
0.23194924 0.21428415 -0.2765588 -0.13840005 0.03336087 0.15854552 -0.1602849 -0.120441124
0.010469407 -0.08373484 -0.11109951 0.16117269 0.032669097 0.07258806 -0.21499643 -0.1460639
0.060424834 0.28917995 -0.09768793 0.17345124 -0.2562374 -0.28706747 0.17296079 0.07000229
0.19329959 0.27752784 -0.086148605 -0.16410892 0.01465711 0.14810011 -0.08979757 -0.2395755
-0.03804356 0.27173516 -0.07786469 -0.19596349 -0.10641055 -0.09241229 -0.05175963 0.28713325
0.084667176 0.23888454 -0.117175415 0.12001839 0.24580196 0.12852502 -0.15440351 -0.19323699
00000000: 4417 ba3d 429f 1f3e cfa9 88be 5056 95bc
00000010: 96e9 77be 38dd 5ebd 2ac8 c5bd b021 e0bc
00000020: aa9f 633e a4e0 b33d 534d 863e 2070 4cbc
00000030: 4ee6 483e eeeb 4dbe e669 8cbd c0bb 68bd
00000040: c06d 9e3c 90b6 533d 2692 45be 1296 8ebd
00000050: 2bb3 92be 1511 883e 4627 713e 428e 51be
00000060: a075 343c e731 8bbe e81a 3fbe b665 333e
00000070: 40c8 783c 442f ddbd 2780 833e a4eb b6bd
00000080: 6808 da3d b19a 9a3e 5c86 c4bd b04f 28bd
00000090: 92e5 443e 733e 38be 40bd b03b ecc8 e43d
000000a0: 9a4e 693e 08b8 81be a459 56be df61 23be
000000b0: f08e 02bd daa1 1a3e 4097 bbbc 1b75 58be
000000c0: 4a1b 72be f8ff 37be 5e3f 513e 906a 95bd
000000d0: 594d 20be 962b 47be e3d2 93be 43b3 853e
000000e0: 7854 1b3d 5c8e c33d 1055 94bc a3cb 38be
000000f0: 6e5e 703e f8c2 b7bd 38ca 3ebd a6df 573e
00000100: fca5 d03d 9ea7 73be 26e5 053e b07e a13d
00000110: 3a0d 743e 7a04 143e 6eec 86bd 0881 d53d
00000120: 92b5 45be e6fe 7c3e 56b4 123e e852 53bd
00000130: 40f6 cf3d 54e3 c6bd bd70 06be 6ad9 633e
00000140: b675 a5bd 1eb1 743e 260c 6f3e 0046 b23c
00000150: a21c 3b3e 1887 42bd 8269 753e deea c8bd
00000160: 4026 3d3e 1c67 2dbe f148 953e 789a 9bbe
00000170: 802c 60bb bfc5 6fbe d0cd db3c 582d 413e
00000180: 7084 173e 96d4 0cbe 3695 f6bd bab2 743e
00000190: f738 4fbe 1892 04bd c014 b4bc fa97 5e3e
000001a0: 5f5f 983e 0971 873e c0bf 2d3d bfa7 02be
000001b0: 9676 493e 6a8b 7e3e 4208 5a3e 90ca 003e
000001c0: a0b0 fdbd f49f 94be 9598 813e 98d2 033d
000001d0: 1589 8ebe 63b5 813e a0b5 63bc 04c5 34be
000001e0: 8009 ba3b ed91 8a3e 9e3a adbd 203a 9bbc
000001f0: 61d0 8e3e 72a4 94bd 2406 f63d 6058 3d3c
00000200: 80bb 643c f0b1 3e3e bc3f 83be 1f4f 8a3e
00000210: b0d4 22bd bc92 1a3e e65c d6bd b097 903c
00000220: 13ee 9b3e 803a 93bb de03 31be 62cc 8cbe
00000230: 43d4 83be 82ca 153e 50c9 15bd ad75 873e
00000240: be87 323e f84e 073d 64d6 163e 101f 123e
00000250: cbd2 35be 2e53 cbbd 7891 ba3d e0f3 eebd
00000260: 1a61 583e 7551 2bbe d422 0cbe 7434 cabd
00000270: ddfb 9a3e 01e8 843e 7971 873e a021 843c
00000280: 1cf7 9dbd 8240 9dbd 6b8f 8a3e 9432 0c3e
00000290: a8c6 45be 6053 8c3d 15a0 9bbe 0bd7 86be
000002a0: d8e5 cbbd cc31 f6bd 1abd 75be 4073 b33c
000002b0: 3e21 313e 7785 53be e6be 333e 4095 8bbc
000002c0: ba02 89be 3cc3 03be 7e63 763e 62d4 4d3e
000002d0: 86d0 023e 91d2 09be f2ae 74be 12b4 00be
000002e0: b7f3 10be b0d2 39bd d807 773d ca8c 693e
000002f0: 90bb eabc c08e f3bc 3a53 94be d05a 2fbd
00000300: 7892 5a3d b029 cd3d 609c 5dbd 9677 81bd
00000310: fc2b b23d 22a2 7d3e 2e61 adbd f7a5 60be
00000320: 06d1 37be 816e 59be a8de cabd a00f 5c3c
00000330: 3648 edbd 8ccc d73d c05e a13b 1a39 0f3e
00000340: 1a84 6d3e 4e6d 5b3e 1d99 8dbe beb8 0dbe
00000350: 68a5 083d c259 223e ba21 24be d6a9 f6bd
00000360: e087 2b3c 2c7d abbd 2488 e3bd 740a 253e
00000370: 08d0 053d 0ca9 943d 0628 5cbe c691 15be
00000380: 0880 773d 650f 943e 9c10 c8bd 349d 313e
00000390: 8c31 83be 82fa 92be a21c 313e 5c5d 8f3d
000003a0: 54f0 453e 2118 8e3e ae6e b0bd 2b0c 28be
000003b0: 6024 703c 8ea7 173e cae7 b7bd 4853 75be
000003c0: 90d3 1bbd df20 8b3e 8677 9fbd a7aa 48be
000003d0: c6ed d9bd a842 bdbd e801 54bd 2103 933e
000003e0: fc65 ad3d 269e 743e aaf9 efbd 34cc f53d
000003f0: 82b3 7b3e 109c 033e f41b 1ebe ebdf 45be

238 f4 [16, 16]
-0.19581121 -0.00964123 -0.10414806 0.23956805 0.011042386 -0.14084873 0.08232921 -0.21469969
-0.08060819 -0.016255558 0.21270171 0.0690524 0.07707271 -0.0024353862 0.031216353 -0.17735264
-0.21225134 -0.1931628 -0.010098159 -0.048344225 0.24697348 0.08911449 -0.0050634146 0.13965178
-0.010949314 0.17009309 0.20586914 0.023155153 0.20491832 0.058285564 -0.2386409 -0.21041721
-0.17948529 0.03833133 -0.07318246 0.24903944 0.019643843 -0.03317079 0.216039 0.120437086
-0.23586842 0.23806173 0.040375203 -0.08557698 0.21298724 0.23177463 -0.08851519 0.2172724
-0.11493838 -0.104062825 0.13662905 -0.011913866 0.04400778 0.025379837 -0.24944025 -0.21078146
-0.23964661 -0.11199981 0.09482038 0.039210826 -0.015321404 -0.12778372 -0.103184015 -0.23225155
0.03436783 -0.20428559 -0.18875891 0.19254717 0.20906454 -0.12905052 -0.24381936 -0.013911337
0.010179281 0.0010744333 0.13316363 0.21116224 0.09515405 0.004084885 -0.0719659 -0.23443907
-0.23010582 -0.018067509 0.23979169 0.013954669 -0.22539416 -0.13956013 0.04091859 -0.22269547
-0.1840088 0.17378682 0.17871562 0.10864249 0.20832562 0.037858754 -0.009250611 -0.11472806
-0.16391245 0.054090977 0.15781754 -0.10856238 -0.0720188 -0.13128883 -0.23241082 -0.07938337
-0.15316921 0.16697946 0.04852155 -0.23323515 -0.15170988 -0.09676635 -0.083663374 0.12758464
0.24540368 0.20500281 -0.07590896 0.14839858 0.18548486 -0.15631321 0.24144813 -0.06959608
0.0031544864 0.008697718 0.17335325 -0.014684945 -0.15156949 -0.03842616 -0.07155338 -0.11785802
0.22530782 0.2098051 -0.0040701926 0.035197586 -0.04545641 -0.060267657 -0.08333793 -0.05047354
0.054608762 0.23744828 0.17950982 0.2118367 0.19371694 0.09385601 -0.07648343 0.14704415
-0.17353106 -0.052352548 -0.097865134 0.22916147 0.20523977 0.14514837 0.0052564144 -0.19059959
-0.07284585 -0.21075115 0.21940908 0.054080397 0.11739731 -0.15777668 0.13022885 -0.0113096535
-0.20605102 0.12938452 0.22674364 -0.009958714 -0.11676571 -0.249692 0.006761849 -0.1759336
-0.13684937 0.19563499 0.21904257 -0.097058594 0.09641269 0.109811366 0.19693425 0.24928045
0.16266862 -0.21248028 -0.008356154 0.09398988 -0.047831893 0.23864475 -0.21533832 -0.062946826
0.040099353 -0.072518826 -0.11924186 -0.012615651 0.010237545 0.23635718 0.15253669 -0.021132588
-0.12306306 0.050020307 -0.01870647 0.086817116 -0.006738603 -0.16430077 0.20538753 -0.0038790703
-0.10528964 0.102538526 0.12569237 0.202741 0.23075625 -0.027609974 -0.19734442 -0.20561787
-0.012880743 0.04067716 -0.23283002 -0.12995401 0.24741295 -0.17142072 0.21101582 0.13293612
-0.10736337 0.07015225 -0.011640161 0.110506326 0.05289617 -0.07650998 0.21252754 -0.12804958
0.11184806 -0.21584561 -0.088690996 -0.050171614 0.03135833 0.11252901 0.08489877 -0.15909275
-0.057064116 0.16929883 -0.044721276 -0.14537877 0.06409222 0.1946997 0.069122255 -0.23404789
-0.08137548 -0.012790978 -0.17111987 -0.23129287 0.12051171 0.028609544 -0.22570571 -0.16100025
-0.17104977 -0.2145935 0.076381505 0.085356265 0.1729103 0.0878914 -0.043300062 -0.024222672
00000000: bc82 48be 40f6 1dbc 944b d5bd 5451 753e
00000010: 20eb 343c a63a 10be 389c a83d 3cda 5bbe
00000020: e815 a5bd 602a 85bc 7ace 593e 586b 8d3d
00000030: 4cd8 9d3d 009b 1fbb 70b9 ff3c ee9b 35be
00000040: 6a58 59be 78cc 45be c072 25bc 9804 46bd
00000050: 9ee6 7c3e a881 b63d 00eb a5bb e000 0f3e
00000060: c064 33bc e22c 2e3e 5ccf 523e e0af bd3c
00000070: 1cd6 513e d8bc 6e3d 485e 74be 9c77 57be
00000080: feca 37be 5001 1d3d b0e0 95bd 3204 7f3e
00000090: 20ec a03c 18de 07bd 5439 5d3e b8a7 f63d
000000a0: 7e87 71be 74c6 733e 7860 253d fc42 afbd
000000b0: 5419 5a3e 5456 6d3e 7447 b5bd a87c 5e3e
000000c0: d064 ebbd e41e d5bd 7ce8 0b3e 6032 43bc
000000d0: 8041 343d 60e9 cf3c 446d 7fbe 18d7 57be
000000e0: ec65 75be 2860 e5bd 3031 c23d 889b 203d
000000f0: a006 7bbc bcd9 02be 2452 d3bd 5ad3 6dbe
00000100: 48c5 0c3d 3e30 51be 044a 41be 162b 453e
00000110: 0415 563e d225 04be c8ab 79be 60ec 63bc
00000120: 00c7 263c 00d4 8c3a 0c5c 083e ea3a 583e
00000130: 20e0 c23d 80da 853b dc62 93bd cc10 70be
00000140: dca0 6bbe 5002 94bc f48b 753e 20a2 643c
00000150: bacd 66be dae8 0ebe 409a 273d 480a 64be
00000160: ce6c 3cbe 2cf5 313e 3a01 373e f47f de3d
00000170: 5053 553e c811 1b3d e08f 17bc 8cf6 eabd
00000180: aad8 27be 808e 5d3d ec9a 213e f455 debd
00000190: 987e 93bd 9470 06be 1afd 6dbe c093 a2bd
000001a0: 64d8 1cbe aafc 2a3e 88be 463d 32d5 6ebe
000001b0: d659 1bbe 702d c6bd b457 abbd 8ca5 023e
000001c0: 1a4b 7b3e 42ec 513e 2876 9bbd ccf5 173e
000001d0: beef 3d3e 9210 20be 2e3e 773e 6488 8ebd
000001e0: 80bb 4e3b e080 0e3c 8483 313e 2099 70bc
000001f0: 0835 1bbe c064 1dbd 948a 92bd 8c5f f1bd
00000200: 18b7 663e 26d7 563e 405f 85bb 582b 103d
00000210: 8030 3abd 38db 76bd 14ad aabd 58bd 4ebd
00000220: 70ad 5f3d a425 733e 6cd1 373e b8eb 583e
00000230: bc5d 463e 9437 c03d 58a3 9cbd be92 163e
00000240: 20b2 31be a06f 56bd 846d c8bd 4ea9 6a3e
00000250: 602a 523e c6a1 143e 003e ac3b 8a2c 43be
00000260: 3430 95bd 26cf 57be c6ac 603e 6883 5d3d
00000270: 006e f03d 3690 21be b65a 053e 204c 39bc
00000280: 0aff 52be 607d 043e 7c2f 683e e029 23bc
00000290: dc22 efbd 42af 7fbe 8092 dd3b f027 34be
000002a0: 3e22 0cbe 8a54 483e b24c 603e a8c6 c6bd
000002b0: 0474 c53d c8e4 e03d 22a9 493e 6043 7f3e
000002c0: 9a92 263e 6e94 59be 40e8 08bc c47d c03d
000002d0: 60eb 43bd 4a5f 743e a681 5cbe 44ea 80bd
000002e0: 383f 243d c084 94bd 1435 f4bd e0b1 4ebc
000002f0: 60bb 273c 9e07 723e 9432 1c3e 401e adbc
00000300: 7c08 fcbd 18e2 4c3d 503e 99bc 2ccd b13d
00000310: 80cf dcbb 763e 28be 1c51 523e 0038 7ebb
00000320: 18a2 d7bd b8ff d13d 80b5 003e 569b 4f3e
00000330: 5e4b 6c3e 502e e2bc a814 4abe 7e8d 52be
00000340: c009 53bc 189d 263d fe6a 6ebe aa12 05be
00000350: d259 7d3e ea88 2fbe 8814 583e 6820 083e
00000360: 54e1 dbbd fcab 8f3d 60b6 3ebc 2451 e23d
00000370: a8a9 583d 44b1 9cbd d2a0 593e 6e1f 03be
00000380: 9810 e53d a206 5dbe a0a3 b5bd c080 4dbd
00000390: 9871 003d 9c75 e63d 68df ad3d 36e9 22be
000003a0: 10bc 69bd ac5c 2d3e a82d 37bd 2cde 14be
000003b0: c842 833d 5c5f 473e f88f 8d3d 40aa 6fbe
000003c0: 30a8 a6bd 4091 51bc 0c3a 2fbe 0ad8 6cbe
000003d0: d8ce f63d 905e ea3c 661f 67be 40dd 24be
000003e0: ac27 2fbe 66be 5bbe e86d 9c3d 44cf ae3d
000003f0: 660f 313e 6800 b43d 685b 31bd a06e c6bc

239 f4 [16, 32]
-0.084166944 0.06668258 -0.16100496 0.22690547 0.23268017 -0.08734703 -0.16925347 0.08370951
0.0027500987 -0.1057314 0.069054306 -0.047305882 0.15181509 0.19361278 0.13852152 0.004517734
-0.17125934 -0.038823515 -0.12293801 0.0003745556 -0.05603093 0.018586785 -0.18828157 0.103967816
0.18237719 -0.0046013296 0.07332456 -0.018555194 -0.12931046 0.22779122 0.051981658 0.12575167
0.023328364 0.13870367 0.14171326 -0.04414445 -0.2235108 -0.21411425 -0.13519225 0.0069380403
-0.20356146 -0.0108756125 0.11232564 -0.20211741 -0.044172406 -0.013204962 0.1403993 0.09191409
-0.11414555 0.10518423 -0.18476763 -0.028989643 -0.21973297 0.0002565384 0.205048 -0.16280863
0.21089831 -0.03671339 -0.08018258 0.15890622 0.110887975 -0.042927414 -0.018095315 0.06051117
0.026674539 -0.0021926463 0.19719127 -0.18692112 -0.18788564 0.21946025 -0.1535272 -0.01565969
-0.24148455 0.1721065 0.09642464 0.055562466 0.19942474 -0.14949682 0.04815486 0.09797534
0.037261724 -0.16687495 0.009323269 0.14704993 -0.14317286 -0.2461555 -0.040635526 0.07601786
0.2441284 0.17422372 -0.14646974 0.18157208 0.19125566 -0.1162847 0.22116774 -0.010831565
0.21082887 -0.16171646 0.22592789 -0.024100244 0.17471045 0.23919001 0.023701191 0.109659195
-0.22564504 -0.10752106 0.08145565 0.13914579 0.11392766 0.045933306 0.11626902 -0.2434285
-0.12854579 -0.20808518 0.08187777 0.10839456 0.09297302 -0.06911233 -0.17733797 0.24192384
0.010425508 -0.008095026 -0.10114786 -0.012913197 -0.21778902 0.029509604 -0.01552543 0.057991445
-0.121129364 -0.010353416 -0.18779382 -0.22452083 -0.12112874 0.23394585 -0.05873096 0.10905269
0.0123643875 -0.1506941 -0.14149502 0.017410964 -0.21061566 -0.11463156 0.018289506 0.06513262
0.11529741 0.0135575235 -0.10450745 -0.05178398 -0.02858308 -0.15855303 0.13004383 0.04111424
0.24383762 0.0725925 0.03847757 0.14542931 -0.1901879 0.07256144 -0.20669794 0.0063976645
0.16173989 0.029001027 -0.23483399 -0.2141456 0.1029987 0.22953269 -0.20493007 0.13003391
0.030772239 0.17144242 -0.10790503 0.2124663 -0.047279328 -0.17936966 0.21503624 -0.18481827
-0.1165995 0.037036985 0.060873955 0.17306072 -0.09193388 0.038069993 0.14320877 -0.18540764
-0.16469827 -0.20939153 0.013668805 0.2003321 -0.077207774 -0.18754959 -0.16437155 -0.019027472
0.17247689 -0.24324387 -0.08593798 0.030042976 0.12550756 -0.16654405 -0.11902836 0.051194698
0.09327072 0.077010274 -0.1605744 -0.017036766 0.18883625 -0.0811044 -0.13343751 0.12962526
-0.09773454 0.11940622 0.21940073 -0.20407617 -0.14942893 -0.12410352 -0.03278017 0.058390975
-0.07656565 -0.116879106 0.035315186 -0.12994415 -0.05127549 -0.06759179 0.23517272 -0.22423196
0.21498367 0.083316445 0.15568423 -0.020088792 0.2148512 0.19091666 -0.108068764 -0.049156725
0.13614097 0.17320633 -0.21377373 0.08819136 -0.07835472 -0.15013283 0.12834406 0.18032107
-0.19258961 0.09874663 0.20683429 0.062196463 0.06882313 0.16948456 -0.15390539 -0.0864135
0.027198523 -0.124878585 0.019155025 -0.1406435 -0.17140129 0.23881146 -0.02863112 0.13168195
00000000: b85f acbd e090 883d 7cde 24be e859 683e
00000010: b643 6e3e 00e3 b2bd c850 2dbe e46f ab3d
00000020: 003b 343b b489 d8bd 586c 8d3d d0c3 41bd
00000030: 6a75 1b3e 6e42 463e 96d8 0d3e 8009 943b
00000040: 9c5e 2fbe 6805 1fbd ecc6 fbbd 0060 c439
00000050: b080 65bd 5043 983c e2cc 40be 14ed d43d
00000060: 16c1 3a3e c0c6 96bb 302b 963d 1001 98bc
00000070: f669 04be 1a42 693e b8ea 543d 0cc5 003e
00000080: 201b bf3c 5608 0e3e 481d 113e d0d0 34bd
00000090: 04e0 64be c440 5bbe d66f 0abe 8058 e33b
000000a0: 6a72 50be a02f 32bc fc0a e63d def7 4ebe
000000b0: 20ee 34bd a059 58bc d6c4 0f3e 743d bc3d
000000c0: 24c5 e9bd d46a d73d ba33 3dbe b07b edbc
000000d0: ae01 61be 0080 8639 1af8 513e 4eb7 26be
000000e0: baf5 573e c860 16bd c436 a4bd 50b8 223e
000000f0: 3c19 e33d a8d4 2fbd a03c 94bc 90da 773d
00000100: 9084 da3c 80b2 0fbb 82ec 493e 4068 3fbe
00000110: 1865 40be 30ba 603e 3c36 1dbe c048 80bc
00000120: ba47 77be b03c 303e 487a c53d 7895 633d
00000130: 0036 4c3e b215 19be 083e 453d 4ca7 c83d
00000140: c09f 183d 44e1 2abe a0c0 183c 4294 163e
00000150: e89b 12be 3010 7cbe 7071 26bd 40af 9b3d
00000160: ccfc 793e b467 323e 2afc 15be 08ee 393e
00000170: 86d8 433e ac26 eebd cc79 623e e076 31bc
00000180: 86e3 573e 0099 25be a459 673e e06d c5bc
00000190: 4ce7 323e 3aee 743e 0029 c23c 0095 e03d
000001a0: 7e0f 67be 0034 dcbd 38d2 a63d 3c7c 0e3e
000001b0: e852 e93d 9024 3c3d 741e ee3d 5245 79be
000001c0: 82a1 03be 4814 55be 88af a73d f8fd dd3d
000001d0: a468 be3d c48a 8dbd 1698 35be e2ba 773e
000001e0: c0cf 2a3c 00a1 04bc 9c26 cfbd e091 53bc
000001f0: 1604 5fbe 20be f13c 605e 7ebc 7088 6d3d
00000200: ac12 f8bd 60a1 29bc 064d 40be cae8 65be
00000210: 5812 f8bd 808f 6f3e e08f 70bd 0457 df3d
00000220: 0094 4a3c 8e4f 1abe 12e4 10be 70a1 8e3c
00000230: a2ab 57be f4c3 eabd e0d3 953c 4064 853d
00000240: 0c21 ec3d 6020 5e3c 0008 d6bd 701b 54bd
00000250: 1027 eabc ba5b 22be 362a 053e 6867 283d
00000260: 92b0 793e 60ab 943d a89a 1d3d 6ceb 143e
00000270: 9ec0 42be 189b 943d a0a8 53be 80a3 d13b
00000280: 249f 253e 9093 ed3c 5278 70be fc48 5bbe
00000290: fcf0 d23d 9e0a 6b3e 30d9 51be 9c27 053e
000002a0: 1016 fc3c 9a8e 2f3e 50fd dcbd c490 593e
000002b0: f8a7 41bd aeac 37be 7632 5c3e 0041 3dbe
000002c0: b8cb eebd 18b4 173d f856 793d d436 313e
000002d0: d447 bcbd 48ef 1b3d 52a5 123e 80db 3dbe
000002e0: aaa6 28be bc6a 56be 20f3 5f3c dc23 4d3e
000002f0: 1c1f 9ebd 000d 40be 0451 28be 80df 9bbc
00000300: c89d 303e ec14 79be 4000 b0bd b01c f63c
00000310: 0e85 003e 868a 2abe 24c5 f3bd 88b1 513d
00000320: b804 bf3d 90b7 9d3d 9e6d 24be b090 8bbc
00000330: 4a5e 413e 101a a6bd d8a3 08be 7cbc 043e
00000340: 0c29 c8bd 408b f43d 96aa 603e 58f9 50be
00000350: e603 19be fc29 febd 8044 06bd 602b 6f3d
00000360: 74ce 9cbd 505e efbd a8a6 103d 1410 05be
00000370: 4006 52bd 906d 8abd 1ed1 703e 109d 65be
00000380: ae24 5c3e d0a1 aa3d b06b 1f3e 4091 a4bc
00000390: f401 5c3e a87f 433e 2853 ddbd 9058 49bd
000003a0: 8a68 0b3e 005d 313e 80e7 5abe ac9d b43d
000003b0: 7078 a0bd 6cbc 19be a06c 033e 16a6 383e
000003c0: 3636 45be ac3b ca3d 5ecc 533e b8c1 7e3d
000003d0: 24f3 8c3d 5c8d 2d3e 6099 1dbe 90f9 b0bd
000003e0: 70cf de3c 58c0 ffbd 00eb 9c3c da04 10be
000003f0: d283 2fbe fe8a 743e d08b eabc a2d7 063e

240 f4 [32, 16]
0.022819594 0.16913365 0.041710585 -0.04351373 0.1695988 0.0020384341 -0.12802006 0.15705608
0.09916739 -0.1334795 0.020413846 0.08581819 0.036335617 0.012028858 0.042609066 -0.038711816
0.1016482 0.15659161 -0.1334947 -0.073455825 0.10630812 0.07217264 -0.095389 0.09956677
0.092644796 -0.15440062 0.057874873 0.04936391 -0.053792566 0.098442 -0.06615858 -0.15203023
0.17496537 0.030409843 -0.06306001 0.07263012 0.15584709 0.042772308 0.11656429 0.06278768
-0.033045083 0.12730806 0.02019751 -0.10583632 0.0078564435 -0.01706636 -0.10417128 0.11164908
-0.010317549 0.16391803 0.116216525 0.09862177 0.023209319 -0.0024300218 -0.1287627 0.039919212
-0.15286016 0.10664345 0.0790001 -0.06071487 -0.035573646 -0.17071542 -0.14833215 -0.11525564
0.17340957 -0.028462648 0.070346594 0.16588055 0.16178231 -0.06594182 -0.009111017 0.027687043
0.07565792 -0.14285249 -0.025230974 0.11701904 -0.054018475 0.16636886 0.13645728 0.03341931
-0.025441736 -0.015922979 0.0426476 0.16744076 -0.0907135 -0.09321722 0.14659326 -0.09403263
-0.09979029 -0.08391393 0.03772299 -0.026290357 -0.17041169 0.14036922 -0.14896613 0.15067725
-0.16990784 -0.020483017 0.11423536 -0.0049842447 -0.17239544 0.049699157 0.16169526 -0.060265422
0.010948345 0.017546639 0.07461633 -0.10670975 0.07672839 0.044091254 0.021214783 -0.07032707
0.109575555 -0.06465044 -0.013091385 0.14200456 0.096831635 -0.043663144 -0.074984364 0.16261183
-0.041256413 -0.17057 0.12598415 0.04062964 -0.08584708 0.026781589 -0.07418694 -0.052750215
0.034888998 0.11802034 -0.12673652 -0.12995283 0.074122295 -0.084966466 -0.13786845 -0.10420536
0.0060121864 0.073881134 0.008488908 0.17467757 0.09326814 -0.023626551 0.0062387437 0.14303039
0.13256519 -0.05142425 -0.16058385 0.17035328 -0.16681269 -0.009700775 0.059510365 -0.086375855
-0.017918348 -0.14108928 0.00226295 0.15877943 -0.05603206 -0.0361398 -0.15524581 0.069960296
-0.11627525 0.13157474 0.11222343 0.07919784 0.066026226 -0.082311675 -0.041050732 0.022481635
-0.1716821 -0.008360773 -0.124001965 -0.05814305 0.12998222 0.10120945 -0.08929368 -0.0156225115
-0.034688547 -0.06892006 0.08559613 0.008437425 -0.08501721 0.10409622 0.05467494 -0.116269834
0.033546895 0.07346256 -0.0043114275 -0.05395273 -0.16060714 0.04389915 -0.11238398 0.03485
0.09773187 -0.02983731 0.038496196 -0.04914266 0.05328858 0.1354553 0.06493899 -0.13708073
-0.12202612 -0.124254555 0.06842519 -0.14836057 -0.07621503 -0.0028345883 -0.1452841 0.07564308
-0.14150773 -0.031201959 0.046646908 0.041306525 -0.013969988 0.10354878 -0.03265287 0.035872385
-0.09300273 0.043487072 -0.041080147 -0.11194401 0.096462205 0.021778032 0.1551301 -0.10726849
-0.091420725 -0.116096675 0.08896573 -0.106129915 -0.012087211 0.035907432 -0.120513454 0.027309865
-0.12915355 -0.11578076 -0.07981479 0.0281834 -0.07771253 0.14895211 0.16167401 -0.14518476
0.08679427 -0.11941355 -0.07027928 -0.16540092 -0.17195307 0.12500058 0.0707082 -0.055603474
-0.08802626 -0.13937336 0.15204112 -0.11994287 -0.099780515 -0.111349404 0.15564589 0.16041224
00000000: 28f0 ba3c 5f31 2d3e b8d8 2a3d 743b 32bd
00000010: 4fab 2d3e 4097 053b b117 03be 4fd3 203e
00000020: 4618 cb3d daae 08be f03a a73c 72c1 af3d
00000030: a8d4 143d b014 453c d886 2e3d 4890 1ebd
00000040: ee2c d03d 8d59 203e d6b2 08be 0270 96bd
00000050: 12b8 d93d 40cf 933d 4f5b c3bd aae9 cb3d
00000060: 8ebc bd3d 321b 1ebe 340e 6d3d d031 4a3d
00000070: 9855 5cbd f69b c93d 267e 87bd d0ad 1bbe
00000080: 1f2a 333e 101e f93c 9b25 81bd 1abf 943d
00000090: 6196 1f3e 0432 2f3d 42b9 ee3d d496 803d
000000a0: 485a 07bd 0b5d 023e 4075 a53c b6c0 d8bd
000000b0: 50b8 003c c0ce 8bbc c157 d5bd 46a8 e43d
000000c0: f00a 29bc 21da 273e ee02 ee3d 36fa c93d
000000d0: 7821 be3c 0041 1fbb 5fda 03be 5482 233d
000000e0: 6087 1cbe e267 da3d ceca a13d 28b0 78bd
000000f0: acb5 11bd 06d0 2ebe 62e4 17be 260b ecbd
00000100: 4792 313e 802a e9bc e011 903d 97dc 293e
00000110: 43aa 253e 810c 87bd 6046 15bc f0cf e23c
00000120: 8af2 9a3d ec47 12be 30b1 cebc aea7 ef3d
00000130: 7a42 5dbd 995c 2a3e 75bb 0b3e b0e2 083d
00000140: 306b d0bc e870 82bc 40af 2e3d 9775 2b3e
00000150: 00c8 b9bd abe8 bebd 8b1c 163e 2e94 c0bd
00000160: da5e ccbd 11db abbd 6c83 1a3d e05e d7bc
00000170: 6780 2ebe f3bc 0f3e 948a 18be 234b 1a3e
00000180: 52fc 2dbe 00cc a7bc 3af4 e93d e052 a3bb
00000190: 6e88 30be 5891 4b3d 7193 253e e0d8 76bd
000001a0: b060 333c f8bd 8f3c 72d0 983d a48a dabd
000001b0: c623 9d3d 0899 343d a0ca ad3c a407 90bd
000001c0: 2669 e03d 7367 84bd 407d 56bc a569 113e
000001d0: aa4f c63d 20d8 32bd 6791 99bd b783 263e
000001e0: 7cfc 28bd e7a9 2ebe fd01 013e 446b 263d
000001f0: 98d0 afbd 1065 db3c 53ef 97bd 9c10 58bd
00000200: c4e7 0e3d a6b4 f13d 38c7 01be 5b12 05be
00000210: 6ecd 973d e602 aebd 632d 0dbe 9f69 d5bd
00000220: e001 c53b fe4e 973d 1015 0b3c adde 323e
00000230: 5e03 bf3d 788c c1bc 606e cc3b 8f76 123e
00000240: 2bbf 073e 3ca2 52bd 1870 24be 1771 2e3e
00000250: f2d0 2abe 00f0 1ebc 24c1 733d d3e5 b0bd
00000260: 80c9 92bc b579 10be 004e 143b 1397 223e
00000270: e081 65bd 5407 14bd c2f8 1ebe 5847 8f3d
00000280: b821 eebd 87bb 063e 66d5 e53d 7a32 a23d
00000290: c238 873d 0693 a8bd d024 28bd 682b b83c
000002a0: 6fcd 2fbe a0fb 08bc bef4 fdbd 6827 6ebd
000002b0: 0f1a 053e e646 cf3d 9bdf b6bd 90f5 7fbc
000002c0: 9415 0ebd f625 8dbd 064d af3d 203d 0a3c
000002d0: 811d aebd 6630 d53d d4f2 5f3d e11e eebd
000002e0: 7868 093d 8a73 963d e046 8dbb 8afd 5cbd
000002f0: 3376 24be 98cf 333d 9229 e6bd e0be 0e3d
00000300: a627 c83d 606d f4bc 30ae 1d3d d049 49bd
00000310: 2045 5a3d cbb4 0a3e bcfe 843d e45e 0cbe
00000320: d5e8 f9bd 2c79 febd 8222 8c3d d5eb 17be
00000330: a016 9cbd 80c4 39bb 5bc5 14be c2ea 9a3d
00000340: 67e7 10be 409b ffbc d410 3f3d 0831 293d
00000350: 60e2 64bc 6211 d43d 04bf 05bd ecee 123d
00000360: 3778 bebd 801f 323d a843 28bd e742 e5bd
00000370: fa8d c53d d867 b23c 6dda 1e3e 95af dbbd
00000380: ca3a bbbd 18c4 edbd aa33 b63d a45a d9bd
00000390: 7009 46bc ac13 133d c2cf f6bd f0b8 df3c
000003a0: d440 04be 771e edbd f075 a3bd e0e0 e63c
000003b0: bf27 9fbd e786 183e df8d 253e 50ab 14be
000003c0: 32c1 b13d 178f f4bd 95ee 8fbd dc5e 29be
000003d0: 7714 30be 2700 003e 76cf 903d 78c0 63bd
000003e0: 1d47 b4bd e4b7 0ebe abb0 1b3e 9ca4 f5bd
000003f0: ba59 ccbd 280b e4bd a361 1f3e 1b43 243e

241 f4 [16, 48]
0.09086469 0.15588096 -0.26692054 -0.018229634 -0.242102 -0.05441019 -0.09657319 -0.027359813
0.22228876 0.08783081 0.2623087 -0.012477905 0.19619104 -0.20109531 -0.06856136 -0.056819677
0.019339442 0.051687777 -0.19294032 -0.069622174 -0.2865232 0.26575533 0.23550138 -0.20464423
0.011014372 -0.2718651 -0.18662608 0.17519268 0.015184462 -0.10800031 0.2568371 -0.08931664
0.106461346 0.30196145 -0.095959395 -0.04109162 0.19228199 -0.17992572 0.005393654 0.11171135
0.2278389 -0.25335717 -0.20932633 -0.15955304 -0.031874597 0.15100804 -0.02289927 -0.21138422
-0.23643222 -0.17968738 0.20434329 -0.07295716 -0.15654506 -0.1945022 -0.2887183 0.26113328
0.037922353 0.09548637 -0.018106967 -0.18046431 0.23473522 -0.08972734 -0.04657957 0.21081409
0.10187909 -0.2379441 0.13075694 0.07885492 0.2383317 0.14454833 -0.06588064 0.104250014
-0.19307545 0.24706611 0.14326605 -0.051592737 0.1015439 -0.09711328 -0.13128944 0.22250906
-0.08079092 0.2389569 0.23344478 0.021761894 0.18272641 -0.047492117 0.2396603 -0.09810422
0.18471622 -0.16933864 0.29157212 -0.30391288 -0.0034206212 -0.23415278 0.026831537 0.18864954
0.14796615 -0.1375297 -0.120401785 0.23896304 -0.20236574 -0.03236589 -0.02198255 0.21737662
0.29760262 0.26453426 0.042419195 -0.12759303 0.19674143 0.2485787 0.21292213 0.12577271
-0.12387204 -0.29028285 0.25311723 0.03218326 -0.2783896 0.253337 -0.013898283 -0.1765328
0.005677402 0.27064458 -0.08458446 -0.018948615 0.27893355 -0.07257928 0.1201289 0.011556715
0.013960719 0.18622565 -0.25634563 0.2701349 -0.039753616 0.15095037 -0.10466938 0.017650455
0.30455074 -0.0044930577 -0.17286631 -0.27499682 -0.2574788 0.14628032 -0.03656894 0.26456967
0.17434594 0.033034295 0.14730221 0.14269662 -0.17756192 -0.09927975 0.09109777 -0.11667609
0.21130791 -0.16730292 -0.13685161 -0.09873286 0.3027028 0.25958255 0.2645376 0.016129315
-0.07713148 -0.076783195 0.27062544 0.13691169 -0.19314063 0.0685184 -0.3039557 -0.2633594
-0.099559486 -0.12021217 -0.23997918 0.021905541 0.17297837 -0.20656382 0.1755329 -0.017038941
-0.26759893 -0.12867445 0.24061391 0.20100549 0.12774858 -0.13459231 -0.23894861 -0.12568691
-0.1415547 -0.045366943 0.060310215 0.22807613 -0.02865389 -0.029731154 -0.28969747 -0.042811215
0.05336234 0.10017717 -0.05410421 -0.06321637 0.086997956 0.2476888 -0.08465801 -0.2193831
-0.1795083 -0.2123356 -0.099057496 0.01343146 -0.11586039 0.10537061 0.004924625 0.13986626
0.23194924 0.21428415 -0.2765588 -0.13840005 0.03336087 0.15854552 -0.1602849 -0.120441124
0.010469407 -0.08373484 -0.11109951 0.16117269 0.032669097 0.07258806 -0.21499643 -0.1460639
0.060424834 0.28917995 -0.09768793 0.17345124 -0.2562374 -0.28706747 0.17296079 0.07000229
0.19329959 0.27752784 -0.086148605 -0.16410892 0.01465711 0.14810011 -0.08979757 -0.2395755
-0.03804356 0.27173516 -0.07786469 -0.19596349 -0.10641055 -0.09241229 -0.05175963 0.28713325
0.084667176 0.23888454 -0.117175415 0.12001839 0.24580196 0.12852502 -0.15440351 -0.19323699
00000000: 4417 ba3d 429f 1f3e cfa9 88be 5056 95bc
00000010: 96e9 77be 38dd 5ebd 2ac8 c5bd b021 e0bc
00000020: aa9f 633e a4e0 b33d 534d 863e 2070 4cbc
00000030: 4ee6 483e eeeb 4dbe e669 8cbd c0bb 68bd
00000040: c06d 9e3c 90b6 533d 2692 45be 1296 8ebd
00000050: 2bb3 92be 1511 883e 4627 713e 428e 51be
00000060: a075 343c e731 8bbe e81a 3fbe b665 333e
00000070: 40c8 783c 442f ddbd 2780 833e a4eb b6bd
00000080: 6808 da3d b19a 9a3e 5c86 c4bd b04f 28bd
00000090: 92e5 443e 733e 38be 40bd b03b ecc8 e43d
000000a0: 9a4e 693e 08b8 81be a459 56be df61 23be
000000b0: f08e 02bd daa1 1a3e 4097 bbbc 1b75 58be
000000c0: 4a1b 72be f8ff 37be 5e3f 513e 906a 95bd
000000d0: 594d 20be 962b 47be e3d2 93be 43b3 853e
000000e0: 7854 1b3d 5c8e c33d 1055 94bc a3cb 38be
000000f0: 6e5e 703e f8c2 b7bd 38ca 3ebd a6df 573e
00000100: fca5 d03d 9ea7 73be 26e5 053e b07e a13d
00000110: 3a0d 743e 7a04 143e 6eec 86bd 0881 d53d
00000120: 92b5 45be e6fe 7c3e 56b4 123e e852 53bd
00000130: 40f6 cf3d 54e3 c6bd bd70 06be 6ad9 633e
00000140: b675 a5bd 1eb1 743e 260c 6f3e 0046 b23c
00000150: a21c 3b3e 1887 42bd 8269 753e deea c8bd
00000160: 4026 3d3e 1c67 2dbe f148 953e 789a 9bbe
00000170: 802c 60bb bfc5 6fbe d0cd db3c 582d 413e
00000180: 7084 173e 96d4 0cbe 3695 f6bd bab2 743e
00000190: f738 4fbe 1892 04bd c014 b4bc fa97 5e3e
000001a0: 5f5f 983e 0971 873e c0bf 2d3d bfa7 02be
000001b0: 9676 493e 6a8b 7e3e 4208 5a3e 90ca 003e
000001c0: a0b0 fdbd f49f 94be 9598 813e 98d2 033d
000001d0: 1589 8ebe 63b5 813e a0b5 63bc 04c5 34be
000001e0: 8009 ba3b ed91 8a3e 9e3a adbd 203a 9bbc
000001f0: 61d0 8e3e 72a4 94bd 2406 f63d 6058 3d3c
00000200: 80bb 643c f0b1 3e3e bc3f 83be 1f4f 8a3e
00000210: b0d4 22bd bc92 1a3e e65c d6bd b097 903c
00000220: 13ee 9b3e 803a 93bb de03 31be 62cc 8cbe
00000230: 43d4 83be 82ca 153e 50c9 15bd ad75 873e
00000240: be87 323e f84e 073d 64d6 163e 101f 123e
00000250: cbd2 35be 2e53 cbbd 7891 ba3d e0f3 eebd
00000260: 1a61 583e 7551 2bbe d422 0cbe 7434 cabd
00000270: ddfb 9a3e 01e8 843e 7971 873e a021 843c
00000280: 1cf7 9dbd 8240 9dbd 6b8f 8a3e 9432 0c3e
00000290: a8c6 45be 6053 8c3d 15a0 9bbe 0bd7 86be
000002a0: d8e5 cbbd cc31 f6bd 1abd 75be 4073 b33c
000002b0: 3e21 313e 7785 53be e6be 333e 4095 8bbc
000002c0: ba02 89be 3cc3 03be 7e63 763e 62d4 4d3e
000002d0: 86d0 023e 91d2 09be f2ae 74be 12b4 00be
000002e0: b7f3 10be b0d2 39bd d807 773d ca8c 693e
000002f0: 90bb eabc c08e f3bc 3a53 94be d05a 2fbd
00000300: 7892 5a3d b029 cd3d 609c 5dbd 9677 81bd
00000310: fc2b b23d 22a2 7d3e 2e61 adbd f7a5 60be
00000320: 06d1 37be 816e 59be a8de cabd a00f 5c3c
00000330: 3648 edbd 8ccc d73d c05e a13b 1a39 0f3e
00000340: 1a84 6d3e 4e6d 5b3e 1d99 8dbe beb8 0dbe
00000350: 68a5 083d c259 223e ba21 24be d6a9 f6bd
00000360: e087 2b3c 2c7d abbd 2488 e3bd 740a 253e
00000370: 08d0 053d 0ca9 943d 0628 5cbe c691 15be
00000380: 0880 773d 650f 943e 9c10 c8bd 349d 313e
00000390: 8c31 83be 82fa 92be a21c 313e 5c5d 8f3d
000003a0: 54f0 453e 2118 8e3e ae6e b0bd 2b0c 28be
000003b0: 6024 703c 8ea7 173e cae7 b7bd 4853 75be
000003c0: 90d3 1bbd df20 8b3e 8677 9fbd a7aa 48be
000003d0: c6ed d9bd a842 bdbd e801 54bd 2103 933e
000003e0: fc65 ad3d 269e 743e aaf9 efbd 34cc f53d
000003f0: 82b3 7b3e 109c 033e f41b 1ebe ebdf 45be

244 f4 [16, 16]
-0.19581121 -0.00964123 -0.10414806 0.23956805 0.011042386 -0.14084873 0.08232921 -0.21469969
-0.08060819 -0.016255558 0.21270171 0.0690524 0.07707271 -0.0024353862 0.031216353 -0.17735264
-0.21225134 -0.1931628 -0.010098159 -0.048344225 0.24697348 0.08911449 -0.0050634146 0.13965178
-0.010949314 0.17009309 0.20586914 0.023155153 0.20491832 0.058285564 -0.2386409 -0.21041721
-0.17948529 0.03833133 -0.07318246 0.24903944 0.019643843 -0.03317079 0.216039 0.120437086
-0.23586842 0.23806173 0.040375203 -0.08557698 0.21298724 0.23177463 -0.08851519 0.2172724
-0.11493838 -0.104062825 0.13662905 -0.011913866 0.04400778 0.025379837 -0.24944025 -0.21078146
-0.23964661 -0.11199981 0.09482038 0.039210826 -0.015321404 -0.12778372 -0.103184015 -0.23225155
0.03436783 -0.20428559 -0.18875891 0.19254717 0.20906454 -0.12905052 -0.24381936 -0.013911337
0.010179281 0.0010744333 0.13316363 0.21116224 0.09515405 0.004084885 -0.0719659 -0.23443907
-0.23010582 -0.018067509 0.23979169 0.013954669 -0.22539416 -0.13956013 0.04091859 -0.22269547
-0.1840088 0.17378682 0.17871562 0.10864249 0.20832562 0.037858754 -0.009250611 -0.11472806
-0.16391245 0.054090977 0.15781754 -0.10856238 -0.0720188 -0.13128883 -0.23241082 -0.07938337
-0.15316921 0.16697946 0.04852155 -0.23323515 -0.15170988 -0.09676635 -0.083663374 0.12758464
0.24540368 0.20500281 -0.07590896 0.14839858 0.18548486 -0.15631321 0.24144813 -0.06959608
0.0031544864 0.008697718 0.17335325 -0.014684945 -0.15156949 -0.03842616 -0.07155338 -0.11785802
0.22530782 0.2098051 -0.0040701926 0.035197586 -0.04545641 -0.060267657 -0.08333793 -0.05047354
0.054608762 0.23744828 0.17950982 0.2118367 0.19371694 0.09385601 -0.07648343 0.14704415
-0.17353106 -0.052352548 -0.097865134 0.22916147 0.20523977 0.14514837 0.0052564144 -0.19059959
-0.07284585 -0.21075115 0.21940908 0.054080397 0.11739731 -0.15777668 0.13022885 -0.0113096535
-0.20605102 0.12938452 0.22674364 -0.009958714 -0.11676571 -0.249692 0.006761849 -0.1759336
-0.13684937 0.19563499 0.21904257 -0.097058594 0.09641269 0.109811366 0.19693425 0.24928045
0.16266862 -0.21248028 -0.008356154 0.09398988 -0.047831893 0.23864475 -0.21533832 -0.062946826
0.040099353 -0.072518826 -0.11924186 -0.012615651 0.010237545 0.23635718 0.15253669 -0.021132588
-0.12306306 0.050020307 -0.01870647 0.086817116 -0.006738603 -0.16430077 0.20538753 -0.0038790703
-0.10528964 0.102538526 0.12569237 0.202741 0.23075625 -0.027609974 -0.19734442 -0.20561787
-0.012880743 0.04067716 -0.23283002 -0.12995401 0.24741295 -0.17142072 0.21101582 0.13293612
-0.10736337 0.07015225 -0.011640161 0.110506326 0.05289617 -0.07650998 0.21252754 -0.12804958
0.11184806 -0.21584561 -0.088690996 -0.050171614 0.03135833 0.11252901 0.08489877 -0.15909275
-0.057064116 0.16929883 -0.044721276 -0.14537877 0.06409222 0.1946997 0.069122255 -0.23404789
-0.08137548 -0.012790978 -0.17111987 -0.23129287 0.12051171 0.028609544 -0.22570571 -0.16100025
-0.17104977 -0.2145935 0.076381505 0.085356265 0.1729103 0.0878914 -0.043300062 -0.024222672
00000000: bc82 48be 40f6 1dbc 944b d5bd 5451 753e
00000010: 20eb 343c a63a 10be 389c a83d 3cda 5bbe
00000020: e815 a5bd 602a 85bc 7ace 593e 586b 8d3d
00000030: 4cd8 9d3d 009b 1fbb 70b9 ff3c ee9b 35be
00000040: 6a58 59be 78cc 45be c072 25bc 9804 46bd
00000050: 9ee6 7c3e a881 b63d 00eb a5bb e000 0f3e
00000060: c064 33bc e22c 2e3e 5ccf 523e e0af bd3c
00000070: 1cd6 513e d8bc 6e3d 485e 74be 9c77 57be
00000080: feca 37be 5001 1d3d b0e0 95bd 3204 7f3e
00000090: 20ec a03c 18de 07bd 5439 5d3e b8a7 f63d
000000a0: 7e87 71be 74c6 733e 7860 253d fc42 afbd
000000b0: 5419 5a3e 5456 6d3e 7447 b5bd a87c 5e3e
000000c0: d064 ebbd e41e d5bd 7ce8 0b3e 6032 43bc
000000d0: 8041 343d 60e9 cf3c 446d 7fbe 18d7 57be
000000e0: ec65 75be 2860 e5bd 3031 c23d 889b 203d
000000f0: a006 7bbc bcd9 02be 2452 d3bd 5ad3 6dbe
00000100: 48c5 0c3d 3e30 51be 044a 41be 162b 453e
00000110: 0415 563e d225 04be c8ab 79be 60ec 63bc
00000120: 00c7 263c 00d4 8c3a 0c5c 083e ea3a 583e
00000130: 20e0 c23d 80da 853b dc62 93bd cc10 70be
00000140: dca0 6bbe 5002 94bc f48b 753e 20a2 643c
00000150: bacd 66be dae8 0ebe 409a 273d 480a 64be
00000160: ce6c 3cbe 2cf5 313e 3a01 373e f47f de3d
00000170: 5053 553e c811 1b3d e08f 17bc 8cf6 eabd
00000180: aad8 27be 808e 5d3d ec9a 213e f455 debd
00000190: 987e 93bd 9470 06be 1afd 6dbe c093 a2bd
000001a0: 64d8 1cbe aafc 2a3e 88be 463d 32d5 6ebe
000001b0: d659 1bbe 702d c6bd b457 abbd 8ca5 023e
000001c0: 1a4b 7b3e 42ec 513e 2876 9bbd ccf5 173e
000001d0: beef 3d3e 9210 20be 2e3e 773e 6488 8ebd
000001e0: 80bb 4e3b e080 0e3c 8483 313e 2099 70bc
000001f0: 0835 1bbe c064 1dbd 948a 92bd 8c5f f1bd
00000200: 18b7 663e 26d7 563e 405f 85bb 582b 103d
00000210: 8030 3abd 38db 76bd 14ad aabd 58bd 4ebd
00000220: 70ad 5f3d a425 733e 6cd1 373e b8eb 583e
00000230: bc5d 463e 9437 c03d 58a3 9cbd be92 163e
00000240: 20b2 31be a06f 56bd 846d c8bd 4ea9 6a3e
00000250: 602a 523e c6a1 143e 003e ac3b 8a2c 43be
00000260: 3430 95bd 26cf 57be c6ac 603e 6883 5d3d
00000270: 006e f03d 3690 21be b65a 053e 204c 39bc
00000280: 0aff 52be 607d 043e 7c2f 683e e029 23bc
00000290: dc22 efbd 42af 7fbe 8092 dd3b f027 34be
000002a0: 3e22 0cbe 8a54 483e b24c 603e a8c6 c6bd
000002b0: 0474 c53d c8e4 e03d 22a9 493e 6043 7f3e
000002c0: 9a92 263e 6e94 59be 40e8 08bc c47d c03d
000002d0: 60eb 43bd 4a5f 743e a681 5cbe 44ea 80bd
000002e0: 383f 243d c084 94bd 1435 f4bd e0b1 4ebc
000002f0: 60bb 273c 9e07 723e 9432 1c3e 401e adbc
00000300: 7c08 fcbd 18e2 4c3d 503e 99bc 2ccd b13d
00000310: 80cf dcbb 763e 28be 1c51 523e 0038 7ebb
00000320: 18a2 d7bd b8ff d13d 80b5 003e 569b 4f3e
00000330: 5e4b 6c3e 502e e2bc a814 4abe 7e8d 52be
00000340: c009 53bc 189d 263d fe6a 6ebe aa12 05be
00000350: d259 7d3e ea88 2fbe 8814 583e 6820 083e
00000360: 54e1 dbbd fcab 8f3d 60b6 3ebc 2451 e23d
00000370: a8a9 583d 44b1 9cbd d2a0 593e 6e1f 03be
00000380: 9810 e53d a206 5dbe a0a3 b5bd c080 4dbd
00000390: 9871 003d 9c75 e63d 68df ad3d 36e9 22be
000003a0: 10bc 69bd ac5c 2d3e a82d 37bd 2cde 14be
000003b0: c842 833d 5c5f 473e f88f 8d3d 40aa 6fbe
000003c0: 30a8 a6bd 4091 51bc 0c3a 2fbe 0ad8 6cbe
000003d0: d8ce f63d 905e ea3c 661f 67be 40dd 24be
000003e0: ac27 2fbe 66be 5bbe e86d 9c3d 44cf ae3d
000003f0: 660f 313e 6800 b43d 685b 31bd a06e c6bc
