model-inference/src/main/application/models/pairwise_ranker.onnx (onnx, 3155 bytes, 3 tensors)

query_doc_transform.weight f4 [16, 32]
-0.05003181 -0.0001064837 0.10555293 -0.06916504 0.07906027 0.09604244 0.15024252 -0.12113076
0.046239987 0.103777304 -0.062011123 0.13867034 -0.07650441 0.032278255 0.009042367 0.08564676
-0.0413395 -0.11983858 0.1532558 -0.07040789 -0.11821428 0.0017600954 -0.12253389 0.1024905
-0.0011878312 0.13367344 0.07239473 0.038011298 0.08618806 0.09763877 -0.09291245 -0.14527483
-0.07160181 0.10047428 0.12001185 -0.09872842 -0.12877387 0.14895539 0.14927329 0.06288953
-0.0703316 -0.061348952 0.08028965 0.06127496 0.012007743 -0.16239807 -0.07563452 0.020218924
0.120692864 -0.10374038 0.04169607 0.033575997 -0.031696036 0.08142145 -0.15489662 0.055452123
-0.026581869 0.048391014 0.11750905 0.14863606 -0.10588681 0.1185718 -0.053799205 -0.089502685
-0.054289147 0.13593115 -0.14038979 -0.12613793 0.09840508 0.12074588 0.08785339 0.15008046
-0.14504814 -0.15891597 0.10539125 0.061857015 0.17258058 -0.10857736 -0.08365707 0.027069569
0.025199741 0.17426418 -0.13210931 0.029487982 0.14937662 0.12475608 0.17102064 0.16092713
-0.099311315 0.12032823 0.06574479 -0.039882615 -0.034432545 -0.08436701 0.020999268 0.09155993
0.10058306 0.050904125 -0.056031324 -0.10172163 0.13811491 -0.13396415 0.08915569 0.09791504
0.08000378 -0.05101718 -0.06722026 -0.07837771 0.090483114 -0.09338234 0.16818263 0.08601977
-0.00882861 -0.0801498 0.110054806 -0.08069379 -0.046392873 -0.04034838 -0.1527981 -0.12162876
0.16764744 0.006178856 -0.11702517 -0.047576085 -0.08295688 0.046281815 0.0045154244 0.039034367
0.07571499 0.14251311 -0.11969009 -0.07971172 0.16463219 0.13596226 -0.122593015 0.015892163
0.17468606 0.07472338 0.0007491857 0.025169238 -0.019134402 0.1465059 0.12072094 -0.09473914
0.12115897 -0.10292901 -0.14123677 -0.08968097 -0.13454774 0.08417918 -0.044097975 -0.1738964
-0.019944966 0.16440059 -0.038527608 -0.16014753 -0.037074193 0.063473 -0.055006884 0.03458132
-0.15547419 -0.111427896 -0.12467659 0.120608196 -0.07884023 0.01098758 0.103109494 0.06593153
-0.010665089 -0.030544639 0.054984614 -0.05517661 -0.071254134 -0.06894265 0.0055776983 0.1532668
0.03420821 0.04751511 -0.1707986 0.08134432 -0.114812076 0.10939045 -0.046958566 0.014166012
0.13995157 -0.060438283 0.027094185 0.1433761 -0.12144184 0.14905511 0.11326207 0.039108098
0.09609373 0.05403413 0.09922992 0.08006586 -0.045944348 0.041989833 -0.0084812045 0.15604673
-0.020803437 0.032301724 0.0020163506 0.16668229 0.14228107 -0.014535621 0.15874504 -0.17400788
0.10863538 -0.102403946 -0.14124964 -0.17464246 0.13613676 0.05394286 -0.14005706 0.01469408
-0.120848075 0.16365544 0.049264565 -0.0029239655 0.124291465 -0.105202705 0.11375998 0.046708256
0.13625975 -0.083315365 -0.089464925 -0.026791722 -0.119638845 -0.10377066 -0.11560714 -0.087957814
0.051850513 -0.11374144 0.16115288 0.14860235 -0.054220825 0.00828658 0.09546535 0.1222377
0.11101727 0.0032954365 -0.034160882 -0.12883122 -0.006015241 -0.07532495 0.10765199 -0.05482114
0.16935514 0.13772951 0.15704243 -0.0751049 -0.02651605 0.0063865334 -0.059059665 -0.06547899
00000000: 28ee 4cbd 0050 dfb8 222c d83d 67a6 8dbd
00000010: 5aea a13d e6b1 c43d 2dd9 193e 6713 f8bd
00000020: 2466 3d3d 3289 d43d 60ff 7dbd 99ff 0d3e
00000030: 58ae 9cbd 3436 043d 7026 143c 9267 af3d
00000040: 9c53 29bd ee6d f5bd 17ef 1c3e 0332 90bd
00000050: 541a f2bd 00b3 e63a 0cf3 fabd 8ae6 d13d
00000060: 00b1 9bba b1e1 083e b043 943d bcb1 1b3d
00000070: 5e83 b03d d6f6 c73d e248 bebd edc2 14be
00000080: f8a3 92bd 76c5 cd3d c6c8 f53d 2032 cabd
00000090: 4cdd 03be c387 183e 19db 183e 3acc 803d
000000a0: 040a 90bd 0a49 7bbd e66e a43d 74fb 7a3d
000000b0: 20bc 443c ae4b 26be 45e6 9abd 28a2 a53c
000000c0: d22d f73d d675 d4bd 80c9 2a3d fc86 093d
000000d0: b4d3 01bd 4ac0 a63d 389d 1ebe c421 633d
000000e0: 38c2 d9bc a835 463d 96a8 f03d 0d34 183e
000000f0: 2fdb d8bd c6d5 f23d 8e5c 5cbd 2f4d b7bd
00000100: 4c5e 5ebd 8931 0b3e 57c2 0fbe 4d2a 01be
00000110: 9a88 c93d 9e49 f73d 7aec b33d b1ae 193e
00000120: 8087 14be deba 22be 5ed7 d73d c85d 7d3d
00000130: f7b8 303e cf5d debd 6654 abbd 00c1 dd3c
00000140: b06f ce3c 4f72 323e aa47 07be c890 f13c
00000150: 2ff6 183e 1e80 ff3d 0920 2f3e 15ca 243e
00000160: bb63 cbbd a66e f63d 34a5 863d f45b 23bd
00000170: 2409 0dbd 9cc8 acbd a806 ac3c c683 bb3d
00000180: 7efe cd3d d880 503d 1a81 65bd 6e53 d0bd
00000190: ff6d 0d3e e62d 09be 4297 b63d ae87 c83d
000001a0: 06d9 a33d 64f7 50bd c7aa 89bd 7e84 a0bd
000001b0: 364f b93d 3e3f bfbd 1138 2c3e 222b b03d
000001c0: e0a5 10bc 9425 a4bd 6a64 e13d c942 a5bd
000001d0: 7406 3ebd 5844 25bd 1b77 1cbe 8018 f9bd
000001e0: c5ab 2b3e 0078 ca3b e4aa efbd 24df 42bd
000001f0: 4ce5 a9bd 0092 3d3d 20f6 933b 80e2 1f3d
00000200: 7610 9b3d f5ee 113e 1420 f5bd e63f a3bd
00000210: 5795 283e b139 0b3e 0c12 fbbd 4830 823c
00000220: e7e0 323e 9208 993d 0065 443a b82f ce3c
00000230: c0bf 9cbc a505 163e 8a3c f73d 9806 c2bd
00000240: 3222 f83d 72cc d2bd 5fa0 10be a8aa b7bd
00000250: e2c6 09be 2266 ac3d 14a0 34bd e611 32be
00000260: a063 a3bc a158 283e 20cf 1dbd b7fd 23be
00000270: 1cdb 17bd 22fe 813d e64e 61bd 24a5 0d3d
00000280: a034 1fbe 4f34 e4bd 7156 ffbd 6e01 f73d
00000290: fd76 a1bd 4005 343c 122b d33d 1c07 873d
000002a0: a0bc 2ebc c038 fabc 8c37 613d de00 62bd
000002b0: b0ed 91bd ce31 8dbd 20c5 b63b f9f1 1c3e
000002c0: e81d 0c3d 349f 423d d4e5 2ebe da97 a63d
000002d0: 9822 ebbd 1a08 e03d a057 40bd 9018 683c
000002e0: 774f 0f3e 228e 77bd a0f4 dd3c 2fd1 123e
000002f0: 80b6 f8bd e7a1 183e f2f5 e73d d02f 203d
00000300: cacc c43d e452 5d3d 0e39 cb3d 92f9 a33d
00000310: 2430 3cbd 88fd 2b3d c0f4 0abc b7ca 1f3e
00000320: f86b aabc d04e 043d c024 043b c3ae 2a3e
00000330: 21b2 113e d026 6ebc 0f8e 223e 1f2f 32be
00000340: 3a7c de3d 29b9 d1bd bfa3 10be 79d5 32be
00000350: 6f67 0b3e 30f3 5c3d 1e6b 0fbe 70bf 703c
00000360: 327f f7bd 4b95 273e a4c9 493d 00a0 3fbb
00000370: 868c fe3d 8474 d7bd fefa e83d 2851 3f3d
00000380: ad87 0b3e 3fa1 aabd 6339 b7bd 507a dbbc
00000390: 3605 f5bd b685 d4bd 70c3 ecbd 3a23 b4bd
000003a0: 3461 543d 46f1 e8bd 4305 253e 372b 183e
000003b0: a816 5ebd 70c4 073c 5683 c33d c257 fa3d
000003c0: 065d e33d 40f8 573b 48ec 0bbd 55ec 03be
000003d0: 801b c5bb f843 9abd a678 dc3d 228c 60bd
000003e0: 6f6b 2d3e f708 0d3e bbcf 203e 99d0 99bd
000003f0: 3038 d9bc 2046 d13b 8ce8 71bd d919 86bd

query_doc_transform.bias f4 [16]
-0.035281733 -0.013948813 -0.15421474 0.1668097 -0.04182583 0.035253376 0.03928189 -0.060348533
0.12812464 0.04627636 0.076149955 0.0023034066 -0.121886134 -0.14474507 0.12052427 0.03197649
00000000: 9483 10bd 9089 64bc 78ea 1dbe 29d0 2a3e
00000010: 9051 2bbd d865 103d 0ce6 203d 0630 77bd
00000020: 1b33 033e 488c 3d3d 82f4 9b3d c0f4 163b
00000030: 709f f9bd 0d38 14be 6ed5 f63d c8f9 023d

compare_transform.weight f4 [1, 32]
-0.036332652 -0.16291812 0.15873434 0.084467664 0.060619265 0.10105647 -0.08737457 0.07880096
-0.11821829 0.10740967 0.1572221 0.1604373 0.10497196 0.15540998 0.036978185 0.12880234
-0.089309596 0.02782166 -0.12954089 0.17009868 -0.06372818 -0.0045570433 -0.108350866 -0.13624132
-0.14894466 -0.081026115 0.06549616 0.020351276 0.016947463 -0.105617344 0.108090445 0.16824897
00000000: 8cd1 14bd 02d4 26be 418b 223e 62fd ac3d
00000010: e84b 783d b2f6 ce3d 70f1 b2bd 6662 a13d
00000020: 6e1c f2bd 9af9 db3d d5fe 203e ad49 243e
00000030: 8afb d63d cb23 1f3e 7076 173d c3e4 033e
00000040: f3e7 b6bd 40ea e33c 5ea6 04be 592e 2e3e
00000050: ec83 82bd 4053 95bb 0fe7 ddbd d882 0bbe
00000060: f384 18be 05f1 a5bd da22 863d b8b7 a63c
00000070: 68d5 8a3c e84d d8bd 865e dd3d 7549 2c3e
