custom-embeddings/models/custom_similarity.onnx (onnx, 953421 bytes, 7 tensors)

fc1.weight f4 [256, 768]
-0.027222358 0.0014741123 -0.02871656 0.035914354 -0.020667953 0.0061597973 0.023111869 -0.03118669
0.014755033 0.0022771135 0.0295216 0.035217695 0.01972263 -0.024265304 -0.002264399 -0.02873712
-0.010157494 -0.023103513 -0.0014340319 -0.027046693 0.034331024 -0.024653759 -0.009768715 -0.031899657
-0.0129110385 0.0031324252 -0.007643193 0.009252679 0.024239246 0.0063052513 0.035396524 -0.016541937
-5.2914023e-05 0.023815554 -0.012318037 -0.021010356 -0.031959105 0.020526242 -0.013849169 0.018069785
0.013394151 -0.031602 -0.013355061 -0.022326864 0.011706281 0.019143384 -0.010664582 0.021342695
-0.017074475 0.011406548 0.0005559474 0.033588685 0.0038050674 -0.021928437 0.0113032535 0.03192941
0.017973289 0.017666142 -0.025972754 0.0132771805 -0.03566371 0.02055765 -0.007885119 0.014806073
0.030555412 0.021183439 0.00269467 -0.0080711935 0.007337209 0.00522786 -0.012051718 0.019080661
-0.005460974 0.018814262 -0.024184357 0.022625446 0.0017846301 0.0030849762 0.02304605 0.025334641
-0.0052721333 -0.016961738 0.001536198 0.023186155 0.030736446 0.004308928 -0.012833433 0.034484252
-0.005461162 0.011119034 -0.009191459 -0.025300272 0.033527195 -0.029898956 0.004929904 0.016912717
0.011669271 0.03166625 0.025343169 0.017449718 0.0031085573 -0.009624228 0.03194654 -0.027240537
0.012632761 0.007873662 0.021103106 -0.01709008 0.0016558878 -0.015245987 -0.0011923909 -0.034480944
-0.0021912716 -0.022564763 -0.02544225 -0.023451468 -0.015374128 0.016336858 0.017655425 0.03451524
0.0051002726 0.024689116 0.035544433 -0.02153879 -0.025445545 -0.01244339 -0.007411614 0.034463115
0.025729492 0.031960525 -0.021241102 0.0054782405 -0.012725996 0.016855013 -0.034418367 -0.023620207
-0.0008685142 -0.034649555 0.031303257 0.028953433 0.0028052516 0.019262686 0.026776478 -0.016860036
0.019160546 -0.026003208 0.025153182 0.030922346 0.0045945384 0.0058586486 -0.022650601 -0.029343788
-0.021812897 -0.00698705 0.0144110955 -0.011431027 -0.00955884 0.011829369 -0.034111474 0.010346148
0.02813293 0.026644275 0.0074724816 -0.00040254742 -0.010613665 -0.026339099 -0.035946123 0.031913467
-0.023590414 0.0049971417 -0.030673286 -0.0120974425 0.011716168 0.010403853 0.009840921 0.031763658
0.017499622 0.020612124 0.013288546 0.018948521 0.017831199 0.03250362 -0.012817014 0.02403786
-0.025937382 -0.0037610643 0.027843408 -0.033796743 0.0073916465 -0.024594488 0.0021579973 0.019025411
-0.028032968 0.027379885 0.019682229 0.024407145 -0.019409822 0.030025631 -0.010427436 0.0066377446
-0.024640162 -0.0010949373 -0.012247656 -0.018996026 -0.004131619 -0.028081622 -0.0073823277 -0.03469972
-0.03319135 -0.026745629 0.0151725635 0.005242441 -0.01498306 0.028958298 0.0012978204 -0.027415283
0.035755932 0.03316558 0.020889472 0.02998504 0.0341108 -0.02790644 -0.011779783 -0.03439835
-0.030021053 0.02972541 -0.032911837 0.0009629838 -0.004072763 -0.017269542 -0.015773712 0.009654302
-0.029186586 0.021805394 0.012822527 0.018891286 -0.025287237 -0.01266069 -0.010408714 0.032946713
-0.020583488 0.011781346 -0.014117511 0.0023307726 -0.0140974615 -0.030026821 0.025564112 -0.01274568
0.027715057 -0.036048558 0.010554023 -0.015841156 0.0005065724 -0.017404316 0.011755548 0.028828964
00000000: 6c01 dfbc 0037 c13a fe3e ebbc ee1a 133d
00000010: d74f a9bc 20d8 c93b 1a55 bd3c 3b7b ffbc
00000020: 18bf 713c a03b 153b 48d7 f13c 6e40 103d
00000030: 5a91 a13c 08c8 c6bc 5066 14bb 1c6a ebbc
00000040: 9e6b 26bc 9443 bdbc 20f6 bbba 0791 ddbc
00000050: b09e 0c3d aef6 c9bc f60c 20bc 37a9 02bd
00000060: d288 53bc 6049 4d3b c073 fabb 8c98 173c
00000070: 6291 c63c 489c ce3b f2fb 103d f582 87bc
00000080: 00f0 5db8 d618 c33c 98d1 49bc e91d acbc
00000090: 8de7 02bd a626 a83c a0e7 62bc 1607 943c
000000a0: 2473 5b3c 1971 01bd 30cf 5abc d4e6 b6bc
000000b0: b4cb 3f3c 96d2 9c3c 80ba 2ebc e0d6 ae3c
000000c0: c5df 8bbc 88e2 3a3c 00bd 113a 4a94 093d
000000d0: 705e 793b 44a3 b3bc 4831 393c 6ac8 023d
000000e0: b83c 933c 96b8 903c d0c4 d4bc 8888 593c
000000f0: 1c14 12bd 8468 a83c 9630 01bc 2c95 723c
00000100: 584f fa3c e488 ad3c 1099 303b 0a3d 04bc
00000110: f86c f03b 784e ab3b 9274 45bc 0c4f 9c3c
00000120: f8f1 b2bb 5e20 9a3c 461e c6bc 0059 b93c
00000130: 40ea e93a 502d 4a3b 12cb bc3c 988a cf3c
00000140: dcc1 acbb 58f3 8abc 405a c93a e4f0 bd3c
00000150: 00cb fb3c e831 8d3b 5243 52bc 5c3f 0d3d
00000160: 8cf3 b2bb 9c2c 363c c697 16bc 8442 cfbc
00000170: d053 093d a8ee f4bc 088b a13b 8a8c 8a3c
00000180: 7830 3f3c 78b4 013d 7a9c cf3c b6f2 8e3c
00000190: f0b8 4b3b f0ae 1dbc 60da 023d 8c27 dfbc
000001a0: a4f9 4e3c 8800 013c 6ce0 ac3c 7f00 8cbc
000001b0: 600a d93a 4eca 79bc 004a 9cba e43b 0dbd
000001c0: 709b 0fbb bdd9 b8bc 446c d0bc 4b1d c0bc
000001d0: c4e3 7bbc e0d4 853c 1ca2 903c da5f 0d3d
000001e0: 3020 a73b d440 ca3c 0a97 113d 1e72 b0bc
000001f0: 2d73 d0bc 5cdf 4bbc 20dd f2bb 3229 0d3d
00000200: a8c6 d23c 0ae9 023d d201 aebc d082 b33b
00000210: b280 50bc 8613 8a3c 46fa 0cbd 2a7f c1bc
00000220: 00ad 63ba b1ec 0dbd d837 003d c02f ed3c
00000230: 50d8 373b c8cc 9d3c 585a db3c 0f1e 8abc
00000240: 94f6 9c3c ae04 d5bc 0c0e ce3c dc50 fd3c
00000250: c88d 963b e8f9 bf3b c18d b9bc 6262 f0bc
00000260: f6b0 b2bc a0f3 e4bb 841c 6c3c 3449 3bbc
00000270: ae9c 1cbc f8cf 413c 79b8 0bbd e482 293c
00000280: 0877 e63c 1845 da3c b8db f43b 000d d3b9
00000290: f0e4 2dbc 18c5 d7bc 3e3c 13bd b2b7 023d
000002a0: af40 c1bc 10bf a33b 8b46 fbbc 5a34 46bc
000002b0: 2cf5 3f3c ec74 2a3c d03b 213c 9c1a 023d
000002c0: 5e5b 8f3c c2da a83c 34b8 593c ee39 9b3c
000002d0: bc12 923c 8422 053d 74fe 51bc 0ceb c43c
000002e0: a27a d4bc 307c 76bb dc17 e43c 746e 0abd
000002f0: a035 f23b 617a c9bc 306d 0d3b 2edb 9b3c
00000300: 65a5 e5bc c84b e03c a03c a13c 7ef1 c73c
00000310: 5901 9fbc 50f8 f53c d6d7 2abc 7081 d93b
00000320: 2ada c9bc 0084 8fba 64aa 48bc 8e9d 9bbc
00000330: 8862 87bb 6e0b e6bc 74e7 f1bb 4b21 0ebd
00000340: a7f3 07bd a619 dbbc 5896 783c c8c8 ab3b
00000350: 827b 75bc f439 ed3c a01b aa3a 0496 e0bc
00000360: d074 123d a2d8 073d 6620 ab3c 30a3 f53c
00000370: c4b7 0b3d 0c9c e4bc feff 40bc 49e5 0cbd
00000380: b6ee f5bc b482 f33c 90ce 06bd c070 7c3a
00000390: d074 85bb db78 8dbc df37 81bc 142d 1e3c
000003a0: b518 efbc 3aa1 b23c 9415 523c e6c1 9a3c
000003b0: 2e27 cfbc c86e 4fbc 5089 2abc 22f3 063d
000003c0: b49e a8bc 8c06 413c 224d 67bc e0bf 183b
000003d0: 0af9 66bc cffa f5bc d46b d13c 42d3 50bc
000003e0: b00a e33c a7a7 13bd c8ea 2c3c 50c5 81bc
000003f0: 80cb 043a 7f93 8ebc 589a 403c b82a ec3c

fc1.bias f4 [256]
-0.014087688 -0.024898864 0.015124593 -0.0027981512 0.032087497 0.004376594 -0.0061949156 -0.019091308
-0.023678847 0.014288388 0.0057512037 -0.017205264 0.022342019 0.023696434 0.033888757 0.002934929
-0.015437748 -0.033840634 0.015810043 0.004168343 -0.0009017214 -0.032718174 -0.014148297 0.023161717
0.034918644 -0.016696133 -0.0003531091 0.0030875169 -0.01948809 0.0064527355 0.02968669 -0.025718052
0.018991224 0.0093609765 -0.019544665 -0.018513724 0.02820652 0.01952368 -0.028868023 -0.022229144
0.01089352 0.034762986 -0.0035452917 -0.030254703 -0.028386705 -0.03104124 -0.026863601 0.005986102
0.012345757 -0.00873246 -0.024620956 -0.02555503 0.02276674 -0.0031032227 0.020559672 -0.01435877
0.0062965527 0.00027279928 -0.020666752 -0.03538096 0.03076598 0.0014328994 -0.02615948 0.028801546
-0.03184027 0.0045514703 0.031977043 -0.033395577 0.0012693964 0.017263401 0.015791941 0.010536682
0.014817297 -0.023228642 0.008187093 0.007418927 -0.017627621 0.031686492 -0.003894437 0.014514446
0.021307662 0.0043645315 0.013801958 0.0012715571 0.018589888 -0.023769945 -0.0091274455 -0.011438314
0.015899695 0.014886476 0.025670987 -0.01833402 -0.005056128 -0.020314233 0.03536482 -0.035516493
-0.0015537329 0.0058763735 -0.017957786 -0.0077325385 -0.034442388 0.015498728 -0.013320865 0.0127235465
-0.012429401 0.02083442 -0.03222058 0.018942099 -0.028794521 0.017531857 -0.0073884353 0.021234374
0.014791295 -0.02386256 -0.0029990077 0.032114707 -0.018463777 -0.020036303 -0.0035550743 -0.008145964
-0.01858297 0.028664842 -0.012208011 0.026219297 -0.035575848 -0.018286342 0.024520721 -0.01846798
-0.020051887 0.02102251 -0.028615464 -0.033212285 0.02973713 0.01905606 -0.029645937 0.014282543
0.010179814 -0.027247123 0.033311777 -0.03385453 -0.0073862467 0.01687086 -0.007210484 -0.0051855594
-0.005383756 0.015569303 0.034956224 -0.007077001 0.031313077 -0.0106374435 0.034976028 -0.018595522
-0.018822603 -0.019978635 0.03556043 -0.035895925 -0.01861867 -0.0062346533 0.0048534125 -0.03527782
-0.03323746 0.027614638 -0.020441957 -0.027169483 0.029942632 -0.008687673 0.01642878 -0.007896636
-0.028922103 -0.0014414228 -0.035089463 0.0059639104 0.026719049 -0.011645483 -0.02923449 0.03420648
0.013664342 -0.0056137145 0.026423253 -0.026145287 -0.021333767 -0.00038256124 -0.007344896 -0.010560032
-0.03181276 0.035047166 -0.0051696785 0.023265958 -0.00460222 -0.016614556 0.015095066 -0.021677826
0.020620309 -0.03009381 -0.008965671 -0.030156737 -0.020613883 0.021049276 -0.002305936 -0.022860093
-0.011355603 -0.0045724176 0.035127267 -0.0014881417 0.027153827 0.022710808 -0.02608312 -0.022160895
0.01620654 0.015430223 -0.0145822335 -0.010422897 0.0015629083 -0.0039879754 0.028390177 0.024671115
-0.0016112328 -0.008123234 0.021418426 0.03202591 0.010658547 0.020672295 0.004807677 -0.023173943
0.0030300207 0.01654816 -0.015091341 0.0024751797 0.023141284 0.029405802 0.0012049638 0.020224746
0.030061036 0.014501974 0.017148454 0.03326551 -0.013344321 0.006462194 -0.0006672293 -0.0022837408
-0.0035878308 0.010555584 0.00653721 0.015125085 0.005056523 -0.006011015 0.028802536 -0.01620357
0.034080148 0.032049954 0.0132731795 0.032910794 0.0069354326 -0.022249637 -0.021626055 -0.0018269122
00000000: 0cd0 66bc b4f8 cbbc 24cd 773c 3061 37bb
00000010: 2e6e 033d 8869 8f3b b8fe cabb 6065 9cbc
00000020: 24fa c1bc d819 6a3c 9874 bc3b 0ef2 8cbc
00000030: 9c06 b73c 061f c23c f0ce 0a3d f057 403b
00000040: 9cee 7cbc 7a9c 0abd 1084 813c 9896 883b
00000050: 8061 6cba 7e03 06bd 42ce 67bc a4bd bd3c
00000060: da06 0f3d 54c6 88bc 8021 b9b9 f057 4a3b
00000070: 7da5 9fbc 7871 d33b 8031 f33c aaae d2bc
00000080: 7c93 9b3c c85e 193c 221c a0bc 18aa 97bc
00000090: 5c11 e73c 20f0 9f3c a27c ecbc e519 b6bc
000000a0: bc7a 323c a263 0e3d 2058 68bb b6d8 f7bc
000000b0: 3c8b e8bc 334a febc 0e11 dcbc 1027 c43b
000000c0: dc45 4a3c 9812 0fbc e3b1 c9bc c858 d1bc
000000d0: 5081 ba3c 705f 4bbb c26c a83c 0c41 6bbc
000000e0: 5053 ce3b 8006 8f39 524d a9bc a0eb 10bd
000000f0: f008 fc3c 20d0 bb3a 684c d6bc 38f1 eb3c
00000100: f16a 02bd 8024 953b 5cfa 023d cdc9 08bd
00000110: e061 a63a fa6b 8d3c 1a5e 813c 0ca2 2c3c
00000120: 40c4 723c fe49 bebc 2823 063c 781a f33b
00000130: cd67 90bc b2c9 013d d039 7fbb 00ce 6d3c
00000140: 688d ae3c 5804 8f3b 9c21 623c 60aa a63a
00000150: d249 983c 30b9 c2bc 488b 15bc c467 3bbc
00000160: 1440 823c 68e6 733c f64b d23c 3a31 96bc
00000170: e0ad a5bb 096a a6bc b4da 103d be79 11bd
00000180: a0a6 cbba 988e c03b 351c 93bc 3c61 fdbb
00000190: 7613 0dbd 60ee 7d3c c23f 5abc 6c76 503c
000001a0: b0a4 4bbc f2ac aa3c baf9 03bd 762c 9b3c
000001b0: 7de2 ebbc f89e 8f3c b01a f2bb b6f3 ad3c
000001c0: 3057 723c 6a7b c3bc 008b 44bb b68a 033d
000001d0: 5941 97bc 2c23 a4bc 40fc 68bb a676 05bc
000001e0: 503b 98bc 88d2 ea3c 1c04 48bc dac9 d63c
000001f0: fbb7 11bd 3dcd 95bc aedf c83c 294a 97bc
00000200: db43 a4bc 6637 ac3c fa6a eabc 9b09 08bd
00000210: 489b f33c 741b 9c3c 09dc f2bc 5401 6a3c
00000220: 3cc9 263c 5c35 dfbc ee71 083d 0cab 0abd
00000230: 5408 f2bb c234 8a3c ec45 ecbb a0eb a9bb
00000240: 386a b0bb 6416 7f3c 422e 0f3d 30e6 e7bb
00000250: 2442 003d ac48 2ebc 0643 0f3d a355 98bc
00000260: dc31 9abc 3caa a3bc d0a7 113d 9b07 13bd
00000270: 2e86 98bc 104c ccbb 6009 9f3b 7a7f 10bd
00000280: 0124 08bd 1838 e23c e475 a7bc 8992 debc
00000290: 404a f53c be56 0ebc a695 863c e460 01bc
000002a0: 0cee ecbc 20ee bcba f8b9 0fbd e86c c33b
000002b0: e8e1 da3c b2cc 3ebc 2b7d efbc 181c 0c3d
000002c0: 68e0 5f3c 40f3 b7bb 9475 d83c a42e d6bc
000002d0: 27c4 aebc 8092 c8b9 74ad f0bb fc03 2dbc
000002e0: 194e 02bd 9e8d 0f3d 6866 a9bb 4098 be3c
000002f0: 38ce 96bb 401b 88bc 4c51 773c b295 b1bc
00000300: eceb a83c 4b87 f6bc c0e4 12bc 430b f7bc
00000310: 72de a8bc 886f ac3c 301f 17bb 1745 bbbc
00000320: da0c 3abc 38d4 95bb 9ce1 0f3d c00d c3ba
00000330: b471 de3c 040c ba3c 44ac d5bc c48a b5bc
00000340: 94c3 843c 0ccf 7c3c 52ea 6ebc ccc4 2abc
00000350: 80da cc3a 90ad 82bb 8492 e83c 141b ca3c
00000360: 0030 d3ba 5017 05bc b275 af3c 9a2d 033d
00000370: 30a1 2e3c f258 a93c b889 9d3b 48d7 bdbc
00000380: 5093 463b 0290 873c ac41 77bc a036 223b
00000390: ca92 bd3c 70e4 f03c e0ef 9d3a 5eae a53c
000003a0: 9042 f63c b099 6d3c ea7a 8c3c 6a41 083d
000003b0: 24a2 5abc d0c0 d33b 00e9 2eba d0aa 15bb
000003c0: d021 6bbb 54f1 2c3c 1836 d63b 34cf 773c
000003d0: 30b1 a53b 0cf8 c4bb 4cf3 eb3c 59bd 84bc
000003e0: a097 0b3d d046 033d c077 593c 78cd 063d
000003f0: a042 e33b df44 b6bc 2029 b1bc 0075 efba

fc2.weight f4 [128, 256]
-0.02037213 -0.053125978 0.057698354 0.0083437115 -0.017375745 0.016264178 -0.053205773 -0.018781051
0.01822105 -0.032419614 -0.017362788 0.013725199 0.017352022 0.030093506 0.0068643466 0.021463312
-0.061762564 0.06096252 0.050479524 0.050182477 -0.03497254 -0.03356921 -0.021575257 0.00092956424
-0.04700052 -0.039370768 -0.0020681992 0.0309797 0.013761081 0.018309996 -0.053778447 0.043618597
-0.03801576 0.039743334 -0.053513996 -0.061354473 0.021391645 0.020015955 0.038026124 -0.025953002
-0.017844237 -0.02538053 -0.031806067 -0.007533908 0.03157635 -0.003029786 0.007083066 0.04183363
0.04516284 0.04671084 -0.055340707 -0.022437237 0.02544064 -0.018686801 0.020340651 0.021644175
-0.0059972852 0.02375415 -0.038616307 0.041331045 -0.054235965 -0.016288258 -0.01701627 -0.03253922
0.011362389 0.041284174 0.056063056 -0.017173655 -0.020691887 -0.0119562745 -0.0013177022 -0.012101419
0.05279658 -0.019799314 -0.025703087 0.024644725 -0.041752785 0.012622774 0.0458463 -0.009545453
0.011663459 -0.038517863 -0.052767992 0.0005311817 0.056355186 -0.05636634 -0.03286846 0.008170448
0.035452634 0.007928461 0.056482323 -0.008452028 0.020316564 0.060234137 -0.056615233 0.061775826
-0.008091792 0.015360624 0.008242607 0.032879926 0.028675035 -0.034067273 -0.032849 -0.057048455
-0.05338063 -0.030608632 -0.055635452 -0.04235658 -0.006326832 0.017978616 0.023228437 0.029215194
0.019358687 -0.045075603 -0.060897313 -0.0021461397 0.03922654 0.015772924 -0.0062345415 -0.049851403
-0.023917615 0.025424354 0.036272004 0.030779898 -0.01862546 0.04271838 0.01853209 -0.0027437955
-0.009509236 0.017948031 0.021066599 -0.045838296 -0.031185128 0.0027656704 -0.033219986 -0.025307305
-0.012368061 0.038871832 -0.056942865 0.021316014 -0.022688322 0.05809608 0.014665239 -0.003012985
-0.052533746 -0.05547522 -0.0451096 -0.029280864 0.009642564 -0.02061607 -0.024293758 -0.024659775
-0.029848881 0.028299011 0.04162243 0.060320474 -0.015313007 -0.048356913 0.024602547 0.04100143
-0.051346086 -0.015991963 0.057751864 0.0069088712 0.010266952 -0.051009037 -0.021632083 -0.047251947
-0.00020319968 0.033718728 -0.03210777 -0.022651479 0.04384446 0.04571721 0.038334385 -0.05323857
-0.012950785 0.022941723 -0.016053647 0.0020489395 0.033466794 0.023815043 0.008739248 0.02549567
0.03179814 -0.04242736 0.03491015 0.037090287 -0.06120657 -0.029519923 -0.0041012242 -0.05941356
-0.054058716 0.01653175 -0.020925216 0.045025863 -0.05809337 0.016472727 0.0076332167 0.05428785
-0.061303332 0.041003667 0.01819773 -0.0505429 -0.035482652 0.058150105 -0.030301757 0.014001578
0.013693623 -0.060491808 0.02151341 -0.02848865 -0.024072528 0.040662564 0.050116614 -0.03604894
0.0138628185 -0.00719586 -0.062184617 0.036083534 0.052528642 0.041197345 -0.031757824 0.005369425
0.011231914 -0.049852654 0.013134614 -0.04878228 0.018020116 0.034980364 -0.03063146 0.025788486
-0.039963774 0.04234927 -0.0050023124 -0.0057045147 0.05906099 -0.058030643 -0.008419372 -0.006351188
-0.028796762 0.01874546 -0.059059717 -0.0560681 0.020578548 0.05024363 -0.038260296 0.002763003
-0.017827064 -0.061276123 0.044720188 -0.012392618 -0.023298554 0.0480119 0.058366597 -0.034015566
00000000: 74e3 a6bc a09a 59bd 1c55 6c3d 10b4 083c
00000010: 9457 8ebc 743c 853c 4cee 59bd b8da 99bc
00000020: 5044 953c 6eca 04bd 683c 8ebc a8df 603c
00000030: d425 8e3c a886 f63c 50ee e03b d4d3 af3c
00000040: befa 7cbd d6b3 793d 9ec3 4e3d 248c 4d3d
00000050: 5e3f 0fbd de7f 09bd 98be b0bc 00ae 733a
00000060: 9e83 40bd 3e43 21bd a08a 07bb 24c9 fd3c
00000070: 2876 613c d8fe 953c ca46 5cbd 6aa9 323d
00000080: 6ab6 1bbd e8c9 223d 7e31 5bbd d44e 7bbd
00000090: 883d af3c 80f8 a33c 48c1 1b3d 649b d4bc
000000a0: 142e 92bc d4ea cfbc 1447 02bd 00df f6bb
000000b0: 3456 013d 608f 46bb 1019 e83b be59 2b3d
000000c0: acfc 383d de53 3f3d f0ac 62bd 4cce b7bc
000000d0: e468 d03c 1015 99bc 70a1 a63c 204f b13c
000000e0: e084 c4bb 1098 c23c 222c 1ebd be4a 293d
000000f0: 8826 5ebd f46e 85bc b465 8bbc d847 05bd
00000100: 5029 3a3c 9819 293d 60a2 653d c4af 8cbc
00000110: 0882 a9bc 40e4 43bc c0b6 acba 0845 46bc
00000120: 3a41 583d 2c32 a2bc 488f d2bc bce3 c93c
00000130: f804 2bbd c0cf 4e3c 54c9 3b3d 8864 1cbc
00000140: 1818 3f3c e8c4 1dbd 4023 58bd 003f 0b3a
00000150: b2d4 663d 64e0 66bd 14a1 06bd 58dd 053c
00000160: c836 113d 60e6 013c 025a 673d 607a 0abc
00000170: ec6e a63c 12b8 763d 60e5 67bd a608 7d3d
00000180: 7093 04bc 20ab 7b3c 000c 073c 1aad 063d
00000190: e8e7 ea3c 208a 0bbd ac8c 06bd a4ab 69bd
000001a0: a6a5 5abd f4be fabc 00e2 63bd 187e 2dbd
000001b0: 5051 cfbb e447 933c 9049 be3c b454 ef3c
000001c0: 1c96 9e3c 32a1 38bd 766f 79bd 40a6 0cbb
000001d0: 02ac 203d 3836 813c 204b ccbb fc30 4cbd
000001e0: e0ee c3bc bc46 d03c f491 143d 2026 fc3c
000001f0: 6c94 98bc 78f9 2e3d 9cd0 973c 40d1 33bb
00000200: a0cc 1bbc c007 933c dc93 ac3c f0c0 3bbd
00000210: f477 ffbc 4040 353b ae11 08bd 4451 cfbc
00000220: 68a3 4abc 1238 1f3d ec3c 69bd ec9e ae3c
00000230: dcdc b9bc 28f6 6d3d 7846 703c 8075 45bb
00000240: a02d 57bd fc39 63bd d8c4 38bd 6cde efbc
00000250: d8fb 1d3c 08e3 a8bc b403 c7bc 4c03 cabc
00000260: a485 f4bc 54d3 e73c 487c 2a3d 9a12 773d
00000270: 68e3 7abc e611 46bd 488b c93c 1ef1 273d
00000280: 4650 52bd 9401 83bc 388d 6c3d d063 e23b
00000290: b836 283c daee 50bd c435 b1bc 428b 41bd
000002a0: 0012 55b9 a61c 0a3d 7083 03bd 988f b9bc
000002b0: 4096 333d f841 3b3d 8404 1d3d b010 5abd
000002c0: 882f 54bc 48f0 bb3c f082 83bc 8047 063b
000002d0: 7a14 093d c417 c33c 102f 0f3c 4cdc d03c
000002e0: c43e 023d 50c8 2dbd f2fd 0e3d fceb 173d
000002f0: beb3 7abd c4d3 f1bc 9063 86bb a25b 73bd
00000300: ac6c 5dbd 986d 873c 5c6b abbc 0a6d 383d
00000310: 50f3 6dbd d0f1 863c 1020 fa3b f05c 5e3d
00000320: 3419 7bbd 76f3 273d 6813 953c 1206 4fbd
00000330: 4256 11bd ce2e 6e3d 643b f8bc e066 653c
00000340: 385b 603c 42c6 77bd e43c b03c 0861 e9bc
00000350: c033 c5bc ca8d 263d 1447 4d3d 0ea8 13bd
00000360: e020 633c 40cb ebbb 4cb5 7ebd 54cc 133d
00000370: 4628 573d 8cbe 283d 7e14 02bd 00f2 af3b
00000380: 1006 383c 4c32 4cbd 9032 573c eecf 47bd
00000390: ec9e 933c 9247 0f3d d4ee fabc 6042 d33c
000003a0: 0eb1 23bd 6e76 2d3d 70ea a3bb f0ec babb
000003b0: f0e9 713d 8ab1 6dbd 68f1 09bc a01d d0bb
000003c0: 30e7 ebbc 1490 993c 9ae8 71bd aaa7 65bd
000003d0: 5894 a83c 44cc 4d3d d4b6 1cbd 8013 353b
000003e0: 100a 92bc acfc 7abd 842c 373d 680a 4bbc
000003f0: 9cdc bebc 20a8 443d d011 6f3d e853 0bbd

fc2.bias f4 [128]
0.026788443 0.031048939 -0.040273108 0.033249564 -0.013940327 0.008328289 -0.04116471 0.028097436
0.008211426 -0.04710292 0.039156504 -0.0152729675 0.052894108 0.038778476 0.017341867 0.056160957
-0.051499993 -0.012852326 -0.022055946 -0.030397713 -0.013297297 -0.050413534 -0.0066801906 0.033919297
0.0005126223 -0.010919698 -0.03655997 0.05180917 -0.022110663 0.060731463 0.013009846 -0.022536606
0.032389432 -0.017967187 -0.015906423 0.012083665 -0.007476516 0.014089279 0.006994523 0.043461137
0.03290768 0.034617066 -0.0010539591 -0.026705615 -0.013807148 -0.05385782 -0.048358127 0.05429984
-0.0617498 -0.014108755 0.045537546 0.01288639 0.015939474 0.040267788 -0.004022874 -0.009388238
0.014716618 -0.020580173 0.052691534 0.0590111 0.03759224 -0.010651648 0.056983218 0.046486743
0.04655376 -0.008637011 0.04600008 -0.019519307 0.02112364 -0.018499747 -0.025771528 -0.050776035
0.010274075 -0.057943724 -0.04048203 -0.00777404 0.06128007 -0.0079405755 -0.05233048 0.027508229
0.005524665 -0.05440388 0.02320718 -0.05533149 0.06208826 0.035230592 0.042989172 0.049772546
-0.041508153 -0.015301518 0.026922785 -0.040458567 -0.034847878 -0.044629462 -0.00935252 -0.025120497
-0.01506561 -0.050205067 0.057558164 -0.00045793504 0.032828316 0.035123393 -0.023243062 0.043438025
0.008908495 0.031360045 0.059378102 -0.025619552 -0.05435811 0.04867187 -0.011765584 -0.0504065
-0.031351395 -0.0061515495 0.049020723 -0.027087517 0.058049746 0.031988956 -0.029952034 0.050096698
0.00015571713 0.023213275 0.035779245 -0.05935385 0.011201151 0.05836641 -0.011615038 -0.028693564
00000000: 7073 db3c 585a fe3c 6af5 24bd b230 083d
00000010: f865 64bc 6073 083c 549c 28bd 982c e63c
00000020: 3889 063c feee 40bd 9262 203d 783b 7abc
00000030: 7ea7 583d 2ed6 1e3d 8810 8e3c 0809 663d
00000040: a8f1 52bd 9092 52bc acae b4bc a004 f9bc
00000050: e8dc 59bc 6c7e 4ebd 80e5 dabb f6ee 0a3d
00000060: 8061 063a 88e8 32bc e8bf 15bd da35 543d
00000070: 6c21 b5bc 8ec1 783d 4027 553c b09e b8bc
00000080: c8aa 043d ec2f 93bc 304e 82bc 90fa 453c
00000090: 90fd f4bb b8d6 663c 5032 e53b 4e04 323d
000000a0: 34ca 063d a0ca 0d3d 0025 8aba bcc5 dabc
000000b0: 6037 62bc 049a 5cbd 2c13 46bd 8269 5e3d
000000c0: 5ced 7cbd 6828 67bc 9485 3a3d 7021 533c
000000d0: 8093 823c d6ef 243d 50d2 83bb 20d1 19bc
000000e0: f81d 713c c097 a8bc 14d3 573d a0b5 713d
000000f0: 52fa 193d 4084 2ebc 3c67 693d e268 3e3d
00000100: 28af 3e3d 4082 0dbc 946a 3c3d f4e6 9fbc
00000110: 7c0b ad3c c88c 97bc d01e d3bc 88fa 4fbd
00000120: 9854 283c 6656 6dbd 7cd0 25bd 60bd febb
00000130: d000 7b3d 3019 02bc 7c58 56bd f058 e13c
00000140: 4008 b53b 9ad6 5ebd fc1c be3c 46a3 62bd
00000150: 4250 7e3d f44d 103d 6a15 303d 4cde 4b3d
00000160: 7404 2abd 38b3 7abc 2c8d dc3c e2b7 25bd
00000170: a6bc 0ebd 62cd 36bd 503b 19bc 80c9 cdbc
00000180: c0d5 76bc d4a3 4dbd 1cc2 6b3d 0017 f0b9
00000190: fc76 063d 8cdd 0f3d 3c68 bebc 12ec 313d
000001a0: f0f4 113c 6473 003d 7436 733d 18e0 d1bc
000001b0: 9ca6 5ebd 285c 473d 70c4 40bc 0c77 4ebd
000001c0: 526a 00bd f092 c9bb f4c9 483d a4e6 ddbc
000001d0: 92c5 6d3d da06 033d f85d f5bc 3232 4d3d
000001e0: 0048 2339 c429 be3c 428d 123d 061d 73bd
000001f0: 0885 373c 9e11 6f3d 004d 3ebc c40e ebbc

fc3.weight f4 [64, 128]
0.07715208 0.0844994 0.051978566 -0.028404605 -0.027182344 -0.06868331 -0.06876389 -0.04990405
-0.04059499 -0.017170608 -0.010913894 0.06612884 -0.018602647 -0.034208648 -0.071924955 -0.001422666
0.016268775 0.028881326 -0.042432792 -0.06843009 0.06843535 0.08581 -0.06313427 0.056749247
0.08185666 -0.08628377 -0.05372381 -0.022727467 0.012283899 -0.012518667 0.067292504 0.014176011
-0.058103465 -0.042709067 0.053514026 0.08295592 -0.017496787 -0.05618416 0.07018412 -0.07051258
0.010637738 -0.066626966 -0.057708517 0.04766708 0.075160645 0.042770393 0.08594035 0.034070574
-0.03317938 -0.06396493 -0.05518605 -0.028354641 0.081384756 -0.063235275 -0.01798521 -0.061988983
-0.058114 -0.0077906623 0.007849738 0.08677634 -0.08789403 -0.03079746 -0.051517177 0.0452122
-0.04191522 -0.062441166 0.04391647 -0.027164117 -0.028311092 0.027538985 -0.03491526 0.08237422
-0.017448142 0.056899272 0.021620467 -0.06997825 0.0060626417 0.0014321804 0.006895773 -0.08079054
0.019258253 -0.015654191 -0.008255579 0.0617977 0.05397255 -0.018636987 -0.04812542 -0.06523143
0.027799115 -0.00017763674 -0.044444103 -0.065143615 -0.026547972 0.08560235 -0.0077904016 0.024662457
0.076453574 0.07022879 0.06618146 0.046062298 0.015838936 0.06365728 -0.048811212 0.037031554
-0.051066723 -0.011932798 -0.06093093 0.0467226 0.002932325 -0.061793104 -0.034197975 0.051587947
-0.03636565 -0.00021027029 -0.08391423 -0.0007383153 -0.006798707 0.03944803 0.055408083 0.02369032
-0.040748045 -0.08205666 -0.067622565 -0.018324912 0.079491444 0.03493882 0.05004909 0.071441464
0.08660806 -0.078433536 0.037448026 -0.041006353 0.03478398 0.052557386 0.088372506 0.0074565783
0.08427244 0.06332397 -0.07984738 0.01728025 -0.036905043 -0.01995448 -0.04644202 -0.00907217
0.06250284 0.083244435 -0.08118454 -0.08208283 0.03593128 -0.08421027 -0.061356686 -0.040537924
0.013672009 -0.06623106 0.031998537 -0.06630219 0.008141778 0.071111105 0.013157822 0.08565178
-0.03140977 0.008970387 0.08432826 -0.052541777 0.058061473 0.037075482 -0.0819397 0.07327127
0.07320688 0.033267304 0.020009995 0.0214248 -0.015163511 -0.08478075 -0.03151302 -0.03546498
-0.010590069 -0.029874317 0.084003024 -0.057615876 -0.049672324 -0.0036569163 -0.059045024 0.07364806
0.04313662 -0.012651585 0.053416543 -0.07522122 0.07141922 -0.076739326 0.030794412 0.0739514
-0.060219787 -0.06187422 0.055217646 -0.01269988 0.045185067 0.07021422 -0.018698245 0.0359155
0.013823248 0.02587451 -0.076553434 0.035049446 0.013149902 -0.08589749 -0.03089841 0.063318364
-0.06542621 0.043168418 -0.062802926 0.026592888 0.038416915 -0.08211033 -0.047558345 0.065419726
0.04162713 -0.023241468 -0.030662686 -0.057128344 0.009726077 0.016183883 0.07056778 -0.026837036
-0.05305731 -0.006146267 -0.083524235 0.026709124 -0.057523295 0.046638288 0.08065329 0.03129472
0.045795 0.024592884 -0.0047459453 0.041621782 -0.04445229 -0.08775135 -0.028179742 0.08202005
0.036421753 0.08119925 -0.026657596 0.056294315 0.05735437 -0.08357001 0.01389911 0.015616231
-0.05828771 0.07455381 -0.07802355 0.05902929 0.00576213 0.06259697 0.07843887 0.024153866
00000000: e901 9e3d 050e ad3d 7ae7 543d c6b0 e8bc
00000010: 82ad debc d6a9 8cbd 15d4 8cbd 3068 4cbd
00000020: ef46 26bd 60a9 8cbc 30d0 32bc 8f6e 873d
00000030: 9464 98bc 5e1e 0cbd 644d 93bd c078 baba
00000040: 1846 853c 8898 ec3c 02ce 2dbd 1325 8cbd
00000050: d527 8c3d 27bd af3d 8a4c 81bd e671 683d
00000060: 77a4 a73d 8cb5 b0bd 7f0d 5cbd f42e babc
00000070: 6842 493c 181b 4dbc a7d0 893d 8042 683c
00000080: e6fd 6dbd b4ef 2ebd 8631 5b3d cbe4 a93d
00000090: 6c55 8fbc 5d21 66bd b1bc 8f3d e668 90bd
000000a0: e849 2e3c b873 88bd c45f 6cbd 8e3e 433d
000000b0: d3ed 993d 0230 2f3d 7f01 b03d 968d 0b3d
000000c0: 1ae7 07bd 0c00 83bd c40a 62bd fe47 e8bc
000000d0: 0dad a63d 7f81 81bd b855 93bc 29e8 7dbd
000000e0: f208 6ebd d048 ffbb 309c 003c cbb7 b13d
000000f0: c901 b4bd f44a fcbc ad03 53bd 6e30 393d
00000100: 4baf 2bbd 4fc2 7fbd c2e1 333d 4887 debc
00000110: aaec e7bc 7099 e13c 4e03 0fbd d1b3 a83d
00000120: 68ef 8ebc 360f 693d 681d b13c c250 8fbd
00000130: 20a9 c63b 00b8 bb3a f0f5 e13b 8375 a5bd
00000140: 7cc3 9d3c 383d 80bc 6842 07bc 961f 7d3d
00000150: 5212 5d3d 98ac 98bc 291f 45bd 0e98 85bd
00000160: f8ba e33c 0044 3ab9 050b 36bd 046a 85bd
00000170: 227b d9bc 4950 af3d a046 ffbb ec08 ca3c
00000180: b193 9c3d 1dd4 8f3d 258a 873d d2ab 3c3d
00000190: a8c0 813c bf5e 823d 44ee 47bd 66ae 173d
000001a0: 572b 51bd c881 43bc b692 79bd 3260 3f3d
000001b0: 402c 403b c41a 7dbd 2d13 0cbd e24d 533d
000001c0: 26f4 14bd 007c 5cb9 39db abbd 808b 41ba
000001d0: b0c7 debb 4294 213d 96f3 623d 3412 c23c
000001e0: 6ce7 26bd 520d a8bd b37d 8abd 201e 96bc
000001f0: 69cc a23d 021c 0f3d 4600 4d3d e74f 923d
00000200: 915f b13d c3a1 a0bd 1a63 193d 47f6 27bd
00000210: a679 0e3d 6a46 573d a5fc b43d 5056 f43b
00000220: 0797 ac3d ffaf 813d 0687 a3bd 508f 8d3c
00000230: be29 17bd 9477 a3bc fd39 3ebd 70a3 14bc
00000240: 7d01 803d 0f7c aa3d 1544 a6bd 0b1b a8bd
00000250: ae2c 133d 6f76 acbd 2651 7bbd 180b 26bd
00000260: 9000 603c 26a4 87bd e610 033d 71c9 87bd
00000270: 1865 053c b3a2 913d e893 573c 336a af3d
00000280: 88a7 00bd 88f8 123c 4bb4 ac3d 0c36 57bd
00000290: ded1 6d3d 76dc 173d 00d0 a7bd 3f0f 963d
000002a0: 7ded 953d 4c43 083d 00ec a33c 1083 af3c
000002b0: 6070 78bc 88a1 adbd cc13 01bd ba43 11bd
000002c0: f881 2dbc fcba f4bc c709 ac3d a0fe 6bbd
000002d0: 3575 4bbd e0a8 6fbb 32d9 71bd cbd4 963d
000002e0: 06b0 303d 9848 4fbc 4ecb 5a3d 950d 9abd
000002f0: 3d44 923d 8229 9dbd 9044 fc3c d573 973d
00000300: 06a9 76bd d26f 7dbd e62b 623d 2813 50bc
00000310: fa13 393d 79cc 8f3d 102d 99bc 221c 133d
00000320: e87a 623c c8f6 d33c 0cc8 9cbd 0290 0f3d
00000330: b072 573c 06eb afbd aa1e fdbc 0fad 813d
00000340: 2dfe 85bd 5ed1 303d d29e 80bd 54d9 d93c
00000350: 0e5b 1d3d 7629 a8bd 8acc 42bd c7fa 853d
00000360: 3681 2a3d e464 bebc 5030 fbbc 69ff 69bd
00000370: 205a 1f3c 1094 843c d785 903d 58d9 dbbc
00000380: 9f52 59bd a066 c9bb c10e abbd 18cd da3c
00000390: 8c9d 6bbd ca07 3f3d 8d2d a53d e42e 003d
000003a0: 8a93 3b3d 0477 c93c e083 9bbb 9a7b 2a3d
000003b0: 9b13 36bd fbb6 b3bd 34d9 e6bc 21fa a73d
000003c0: fa2e 153d cb4b a63d 0861 dabc de94 663d
000003d0: 6aec 6a3d c126 abbd 18b9 633c 38db 7f3c
000003e0: 18bf 6ebd abaf 983d d0ca 9fbd b2c8 713d
000003f0: 40d0 bc3b d732 803d 8fa4 a03d 54de c53c

fc3.bias f4 [64]
0.036741965 0.012285553 -0.023375198 0.054221578 0.066026144 0.023812234 -0.009766661 0.0059593096
-0.006629534 -0.08121359 0.03547764 -0.008691892 -0.03912138 0.035035565 -0.038370974 -0.06971265
0.035831206 -0.03724718 -0.0039277524 0.058524854 0.068288825 0.055527486 -0.0815025 0.00088567287
0.067409866 0.038901024 -0.048485186 -0.014832243 -0.051211495 0.034852758 0.003900446 -0.066025026
0.087235264 -0.043426856 0.068491645 0.033812128 -0.0003668815 -0.032769058 0.0053718984 -0.07505177
-0.004411213 -0.06970372 -0.08615063 -0.084002785 -0.021993302 0.053523086 0.046830453 -0.029737424
-0.014625758 -0.08828948 0.019793414 -0.051942978 0.031361774 -0.06838418 -0.00175827 -0.03490833
-0.05929485 0.04324209 0.04496444 -0.03978377 -0.07815772 0.080275275 0.06292341 0.055265598
00000000: be7e 163d 5849 493c 587d bfbc 7217 5e3d
00000010: b738 873d e011 c33c 5804 20bc 5046 c33b
00000020: 903c d9bb 5053 a6bd 0051 113d 7068 0ebc
00000030: bd3d 20bd 7481 0f3d e22a 1dbd 81c5 8ebd
00000040: bec3 123d 8090 18bd 60b4 80bb c2b7 6f3d
00000050: 03db 8b3d ca70 633d c8ea a6bd 802c 683a
00000060: 2f0e 8a3d ae56 1f3d 6798 46bd f002 73bc
00000070: 25c3 51bd c4c1 0e3d a09e 7f3b 2138 87bd
00000080: 67a8 b23d 5ce0 31bd 5945 8c3d 967e 0a3d
00000090: 005a c0b9 d938 06bd c006 b03b beb4 99bd
000000a0: f08b 90bb d3c0 8ebd be6f b0bd a709 acbd
000000b0: 4c2b b4bc 063b 5b3d 4ad1 3f3d e69b f3bc
000000c0: e0a0 6fbc 1dd1 b4bd cc25 a23c 29c2 54bd
000000d0: 3475 003d 010d 8cbd c075 e6ba 09fc 0ebd
000000e0: 28df 72bd 9e1e 313d a22c 383d 4ef4 22bd
000000f0: 2811 a0bd 5d67 a43d fddd 803d 2e5e 623d

fc4.weight f4 [1, 64]
0.019831195 0.05573657 -0.06565596 -0.12347388 0.059123248 0.11181834 -0.069428265 -0.09984757
0.02241692 0.020152017 -0.06964378 -0.033056825 -0.10523255 -0.013499141 -0.06509639 -0.05626808
0.08961497 0.066639975 0.10048802 0.0065443516 0.011288077 -0.016000107 -0.10034844 0.08342081
-0.11770038 0.12158777 0.08965865 -0.03758943 -0.09246549 0.080512315 0.08990079 -0.03250374
0.054732576 0.07679191 -0.075523034 -0.033150554 0.069570765 0.01827848 -0.10694958 0.06230457
-0.07557359 0.07675949 0.11145468 0.07639298 -0.043655515 -0.045647055 0.114167884 -0.047480628
0.021659374 -0.09876329 0.029092863 -0.01981394 -0.015797809 0.102600664 -0.048322663 -0.045281276
0.010904416 -0.0869277 -0.03849648 -0.027284935 -0.01453799 0.0009585321 0.09982805 0.025575325
00000000: 0875 a23c 084c 643d a276 86bd e0df fcbd
00000010: 382b 723d 0401 e53d 6830 8ebd e27c ccbd
00000020: b0a3 b73c d815 a53c 66a1 8ebd 9866 07bd
00000030: 2a84 d7bd 802b 5dbc 4251 85bd 5c79 66bd
00000040: 0e88 b73d 8a7a 883d aacc cd3d 0072 d63b
00000050: a0f1 383c a812 83bc 7c83 cdbd 88d8 aa3d
00000060: e60c f1bd 0203 f93d f49e b73d 60f7 19bd
00000070: 8c5e bdbd a4e3 a43d e81d b83d a422 05bd
00000080: 442f 603d 1445 9d3d d2ab 9abd e0c8 07bd
00000090: 1e7b 8e3d c0bc 953c 6208 dbbd 1433 7f3d
000000a0: 54c6 9abd 1434 9d3d 5a42 e43d ec73 9c3d
000000b0: 20d0 32bd 68f8 3abd dad0 e93d 0c7b 42bd
000000c0: 006f b13c 6844 cabd 2854 ee3c d850 a2bc
000000d0: 686a 81bc 4c20 d23d fced 45bd dc78 39bd
000000e0: 70a8 323c 2607 b2bd 7cae 1dbd a884 dfbc
000000f0: c030 6ebc 0046 7b3a a672 cc3d 5883 d13c
